actor_model.pt (torch, 277232 bytes, 6 tensors)

input.weight f4 [256, 8]
00000000: 4ca5 8ebe 97e4 803e 6c2e 8ebe 0246 ddbd
00000010: 65e0 8cbe cf2d 233e 7dd6 443e 3c13 74be
00000020: d7dd 46be a245 42be e032 41bd 186e 08be
00000030: 7113 123e a4bf d6bd 5566 e63d 8991 563e
00000040: 1f04 b63e 91e8 7cbe 8aff a1bd 1559 b3be
00000050: 8c74 853e ca23 893e 2e26 40bd cdc9 8dbe
00000060: 18e5 cd3e 7702 a73c 2082 033d fae6 943e
00000070: 97ca bc3d 3b17 923e 7f28 21bd 2001 103e
00000080: cc40 24bc 2e90 c1bd 5930 b7bd 1554 993d
00000090: 5c34 8e3e 560d acbe 672d a1be 4f1e a2be
000000a0: 5c32 613e 1ffa 91be 9823 8f3e 9bba 59be
000000b0: d165 a3be b55e 773e 357d 55be 2c98 863d
000000c0: f066 a6be 6caf 01bc a2d8 c1be 9cff 703e
000000d0: 08e5 64be 08a5 413e 7a08 9cbe 7fe2 fcbd
000000e0: ea84 bfbe cefa bc3d 05c8 82be 9e94 253d
000000f0: d6fc 523e 43bf a4be 8a19 823e 2f82 4fbe
00000100: e6fc 62be e369 3fbe fcb9 743e 2346 a2bd
00000110: c6c1 d2bb 255e 3e3e 36e2 62be dc78 a43e
00000120: 03b0 34be eb93 a0be 6c81 6fbd 27fc 86be
00000130: c229 f33d 1474 b4bd dfa8 873e 2aae da3d
00000140: 3a0e cdbe 042a db3d 69bb a1be 352c 62be
00000150: d9b5 273e 1e4f ae3d 98ce f23d 1c54 8a3e
00000160: 12f6 f8bd 40fc b23e 1db4 bfbe 9b16 6a3e
00000170: 10f6 5ebe 0ff9 08be 91fd 29be d4d0 15be
00000180: 28c7 a03d f10d 803e 6ff6 debd 2d0e bc3e
00000190: 708f b43e 8bc4 debd 2213 82be a1d3 053e
000001a0: e420 a1be 1b97 33bd e95a 4d3b 63ff 47be
000001b0: 3f14 1dbe a5de 29be 4a69 f83d c283 2b3e
000001c0: 1091 82be e23b 7fbe 28a8 e1bd 2427 9a3e
000001d0: 7039 1a3d 58e2 843e feb2 a53d ffec 903e
000001e0: 1f5a b33e bcb7 483d 9eea f5bd a79a 063e
000001f0: 6594 9abe 4433 a63e 6eb3 8f3e c7e1 1abe
00000200: 29b5 58be 6a4f a13e 0919 c8bd da3b 8f3e
00000210: a063 d3bd 00f4 22bd 04e5 143e 010a 293e
00000220: 8bac a23e 7c2b 2e3e 3899 743e 78e4 96bd
00000230: c266 5cbd 5b4e e4bd 9389 2c3d 8953 5abe
00000240: 98f9 b73e a286 00be 0bc7 ad3d 65fa 8d3e
00000250: 5230 75be 828b e1bd 745e 653e b3bc 46be
00000260: 0ae2 89be 9fac 0abe 7c02 ee3d b209 69bd
00000270: e578 4cbe 7d5b 77bd 0607 813e 507f 8bbd
00000280: d9f6 473e a10c 42be 1b85 643e 6846 5a3e
00000290: 3f1a 823e 43b0 a6be 86e9 abbe 73d1 5a3d
000002a0: be27 113e 3e5f 543e 1792 ed3d 0ae5 383d
000002b0: e21f 56be 64de 873e 8d40 aa3e 772c 693d
000002c0: 1ee7 08be 1924 533e 3239 5d3e ac53 c7bd
000002d0: f18c 90be 757d 833d 8020 453e ba0b 91be
000002e0: e619 75be 9d4d 69bd 59df ae3e 4d36 9abc
000002f0: 9bb7 20be 3088 343e ea25 cdbd 36c5 bcbb
00000300: e216 b63e f6d5 073d 700e ec3d f547 77be
00000310: 0ac2 bd3d 97f6 4abd e33a 6f3e 331d 553e
00000320: 1627 32be b057 343d acda f83c 9a99 dbbd
00000330: 17d0 a63d 6587 dc3d 7f99 e63c fa82 fe3d
00000340: 603c 623e 7da2 483e 9ddf 153e 67ff 5e3c
00000350: f0e3 7d3d c257 ad3e b1e3 843e d7b2 373e
00000360: 2540 6abd 4efa b13e 64e6 3cbc 6d65 bdbe
00000370: 4875 44be c215 253e 8fb0 6dbe 721a 24be
00000380: 9f5d 34be 8fc5 373d 8b14 d43d d208 94be
00000390: 53c2 94be 534b 99be 5390 22be 7c7d 60be
000003a0: 5548 8ebe e7c9 52be 08b6 db3d f588 503e
000003b0: 4c78 33bd 1550 c33c dce2 23bd 0298 31be
000003c0: eafd 7b3e 9de0 ae3e 85ce 2fbd d936 7fbd
000003d0: 6a08 03bd 1817 afbe 3ed7 69bd b692 863e
000003e0: f658 843e 2b35 2d3e 6b24 2bbe 2875 803e
000003f0: 24c4 47bd ae23 93bc 2d2d 4fbe d2be ecbc
-0.27860487 0.251744 -0.27769792 -0.108043686 -0.2751495 0.15935443 0.19222446 -0.23835462
-0.19420563 -0.18971875 -0.04716766 -0.13323247 0.14265229 -0.10485771 0.11249987 0.20953955
0.3555002 -0.24698092 -0.07910068 -0.35028902 0.2606548 0.26785117 -0.04691141 -0.27693024
0.40213847 0.020386918 0.03210652 0.2908247 0.092183284 0.28533348 -0.03934526 0.14062929
-0.010025214 -0.09451328 -0.089447685 0.074867405 0.27774322 -0.33603925 -0.31479952 -0.3166375
0.21991867 -0.2851114 0.27956843 -0.2126259 -0.31913617 0.24157222 -0.20848544 0.06571993
-0.3250041 -0.007915359 -0.3786059 0.23535007 -0.22352993 0.1891061 -0.30475217 -0.12347888
-0.37406093 0.09227525 -0.25543228 0.040424936 0.20604262 -0.3217717 0.2541011 -0.20264505
-0.22166786 -0.18692736 0.23899072 -0.07923534 -0.006431791 0.18590601 -0.22156605 0.32123458
-0.17645268 -0.31362852 -0.058473036 -0.26364252 0.11873199 -0.08811203 0.26496026 0.106777504
-0.40049917 0.10701373 -0.31588295 -0.22087176 0.16377963 0.08511184 0.11855811 0.27017295
-0.12156309 0.34958076 -0.37442103 0.22860186 -0.21773553 -0.13376258 -0.16600634 -0.14630443
0.07850486 0.25010636 -0.10886847 0.36729565 0.35265684 -0.10877331 -0.25405222 0.13069011
-0.31470406 -0.043845277 0.0031334704 -0.19531016 -0.15339755 -0.16588838 0.12129457 0.1674948
-0.255013 -0.24925187 -0.110184014 0.30107987 0.037652433 0.25953937 0.08090781 0.28305814
0.35029694 0.049003348 -0.1200764 0.13144933 -0.3019134 0.32460988 0.2806658 -0.1512519
-0.21162857 0.315059 -0.097704 0.2797535 -0.10321736 -0.039783478 0.14540488 0.16507722
0.31772265 0.17008775 0.23886573 -0.07367796 -0.053808935 -0.111477576 0.04212339 -0.21320929
0.35932612 -0.12551358 0.0848523 0.27730098 -0.23944214 -0.11012937 0.22399312 -0.1940792
-0.26930267 -0.13542412 0.116215676 -0.05689401 -0.19967993 -0.060389984 0.2520067 -0.06811392
0.19527759 -0.1895013 0.223164 0.2131592 0.2541065 -0.32556352 -0.33576602 0.053422403
0.14175317 0.20739457 0.1160013 0.045140304 -0.209106 0.26536858 0.33252373 0.05692717
-0.13369414 0.20619239 0.2160385 -0.09732756 -0.2823253 0.064204134 0.19250679 -0.2832926
-0.2393566 -0.056958783 0.34154776 -0.01882472 -0.1569504 0.17630076 -0.10016997 -0.005760814
0.35564333 0.033163033 0.11526191 -0.24148543 0.09265526 -0.049551573 0.23362307 0.2081192
-0.17397723 0.044028938 0.030377708 -0.107226565 0.08145159 0.10768012 0.028149365 0.124273255
0.22093344 0.19593234 0.14636083 0.013610697 0.061984956 0.33856016 0.25954965 0.17939316
-0.05719008 0.3476128 -0.011529539 -0.36991444 -0.19185364 0.16121581 -0.23211883 -0.16025713
-0.17613839 0.04486614 0.10355481 -0.2891298 -0.29054508 -0.2994028 -0.15875368 -0.21922868
-0.2778956 -0.20584832 0.10728079 0.20364745 -0.043815896 0.023841897 -0.04001127 -0.17343143
0.2460858 0.3415574 -0.04292156 -0.062308166 -0.031990446 -0.34197307 -0.057090037 0.26283807
0.25849122 0.16914813 -0.16713111 0.25089383 -0.04877104 -0.01796135 -0.20232077 -0.028899584

input.bias f4 [256]
00000000: 6fe0 523e 9dbb 1cbd 7378 343e 74fc a43e
00000010: a217 a23e cf55 a43e bc13 1ebe d9d0 c43c
00000020: 3f88 3c3e c7f6 a3be 7122 943e 24ef 56bc
00000030: e584 88be 7146 863e cf5a 623d d0d8 123e
00000040: 3326 85bd b319 1bbe bca8 85be 6a17 af3e
00000050: f6b7 b3be 5885 8abe 9c85 b93c db57 9ebc
00000060: 0177 833e 371a 2e3e 0ab8 af3e e1a6 25be
00000070: 48cf 203e 01ac 093e 5707 3e3d a84e 633e
00000080: 10ca 13bc 87ce 70bc 903d 313e 2fc2 f6bc
00000090: 5cf6 89bd 1ac2 1c3e 90e9 073e 1f69 463e
000000a0: 34df a53e f440 87be 295f c13d ccd3 aebe
000000b0: 37c2 9ebe 8d1d abbe 601c 9ebd bbb8 8b3c
000000c0: 8c9e 6a3e e908 87be d941 11bd bce4 6cbe
000000d0: 3cec 2c3e 4752 8e3e bc1b b3bd d9f8 78be
000000e0: 69b3 6e3e ac3a a8bd 0c35 3c3e 4c5a 12bc
000000f0: c264 8cbd 4f50 0cbe 05c3 8bbe 446b a13e
00000100: 9430 5bbe f265 db3d afb1 cabd 4a89 9ebe
00000110: c687 72be 9e01 703d f285 303e a5d0 23be
00000120: c60b 2c3e 25e9 7a3e 2871 b7be d1de 87bd
00000130: f91f b53d 2427 a5be dbbe a13e 2044 8a3e
00000140: f339 f13d e4c2 80be 413e 67bd 3d1b 8d3d
00000150: f232 983e b659 cf3d 9c8f 533c 1c0c 56be
00000160: b19e 02be 2374 703e 95b9 93be 6115 49bb
00000170: 54a4 853c 9cc2 9bbe 0184 a03e 8df9 b6be
00000180: f79d 11be 636b e1bc 2e62 7c3d 9ae9 7d3e
00000190: 3e2a 28be 7a12 9abd 58d1 a3bd 5e2d 51be
000001a0: a7b8 183e a791 acbe 42bc 9c3e 425d aebe
000001b0: c90f aebe 7068 51be e32c 8f3d 0fda 843e
000001c0: cf4f 7c3e bdcf 683e 3b14 4f3e 6ff7 87be
000001d0: f2b3 543e 8743 aebd 41dc 30be b6e5 a93c
000001e0: b6be ac3e 2806 913e 83ab 623c 6572 95be
000001f0: 27f9 8e3e 759a 273c 99c3 adbe 8dcb 93be
00000200: 462a 8e3d dccc 9f3e e224 0cbe 1966 8f3e
00000210: 5e98 50be ea04 523e d91f 6dbe 8146 afbe
00000220: 9ff5 37be 211e 51bd 2f45 7f3e 378c c93d
00000230: 51f4 623e 82d0 9dbd 139c 8dbe 8796 2e3e
00000240: dfe4 38bd d222 683e 1e66 dcbc 025d 40be
00000250: 72d8 a3be 678b 793e 154d 8f3c acf9 353d
00000260: ada6 42be 976c a03c b8a0 4ebe a238 85be
00000270: 8d13 91bd 114e 87be 956b 223e f052 22bd
00000280: 23c1 25be d738 a8be ba46 2a3e f287 a4be
00000290: 60d7 33be 64f9 5cbe 0c5c e23d 14ce 113e
000002a0: 7271 03be ef81 7d3e a33b 7b3e 6849 87be
000002b0: 1ee0 7d3e 063e c43d 5a27 16bd df36 82bd
000002c0: 0edb 89bd 4267 c63d 185e 693e 4edd a7bb
000002d0: 7718 c6bd a5b9 e13c 96d9 9f3d 83c6 ad3e
000002e0: 7d9c 8abe 647b b0bd f8b0 48be 09d0 833e
000002f0: c5b7 80bd 8623 823e 2aa6 a1be 149a f2bd
00000300: dbea a13e f6a5 9e3d 92da 59be 7718 ae3e
00000310: 3ec3 363e 8522 aebe 1cc3 84be afc3 a83d
00000320: 269a d53d a96a 963d 6edf b9bc 8590 8c3e
00000330: fce8 cc3d b1dc 293e 4c52 a6be 5630 023d
00000340: 7324 3a3d 63e0 843e 854b 52be 082c 673e
00000350: 7e55 8bbe b8f1 f23a 6207 02be c20a abbe
00000360: cf27 9ebe 582e 013e 400f 66be 9507 093e
00000370: c2f0 7c3e a59d 8fbd 9feb 45be 4cb8 283b
00000380: f6e6 3a3e 65ed f2bd 3d2e 99be de86 373e
00000390: 26a6 60be dd09 4dbc f79c 0e3e 8bb6 78be
000003a0: 24b8 a43e f5d7 4abd b4eb 60be 0f47 2b3d
000003b0: 8575 8f3e e533 413d 060c a7be faaa 59bd
000003c0: ef43 fe3c a9a2 a2be c20f 9c3e 4f46 b2be
000003d0: 7d80 cabd dbae 0fbe e96b 3e3e 8ed8 db3d
000003e0: bfbd 103e dcd4 ae3d 22fb a6be c08d a23e
000003f0: 4a8b 55be fa5a 68be 6e3d dcbc 9e81 a7bb
0.20593427 -0.03826486 0.17624073 0.32223856 0.31658655 0.32096717 -0.15437216 0.024025368
0.18411349 -0.32024214 0.28932527 -0.013118539 -0.2666389 0.26225618 0.055262383 0.1434052
-0.065014265 -0.15146522 -0.26105297 0.3419755 -0.3510129 -0.27054858 0.022646718 -0.019329002
0.2567673 0.17002188 0.34320098 -0.1617694 0.15704072 0.1344452 0.04639372 0.22197974
-0.009020343 -0.014697677 0.1730864 -0.03012189 -0.067364424 0.15308419 0.13272691 0.19376038
0.32396853 -0.26416743 0.094419785 -0.34145963 -0.3100755 -0.33420983 -0.07720256 0.01705586
0.22912043 -0.26373985 -0.035463188 -0.2313413 0.16886991 0.27797148 -0.08745524 -0.24313678
0.23310627 -0.08214316 0.18379611 -0.008932661 -0.068551555 -0.1370251 -0.27297226 0.3152715
-0.2140525 0.10712804 -0.09897172 -0.30964118 -0.23684606 0.058595292 0.17238596 -0.1599756
0.16801366 0.24503 -0.3582852 -0.06634296 0.08843989 -0.32256424 0.31590924 0.270051
0.11778631 -0.2514869 -0.056455854 0.06889961 0.29726368 0.10124533 0.012912657 -0.20903057
-0.12755848 0.23481803 -0.28852525 -0.003068291 0.01631371 -0.30421913 0.3135071 -0.35737267
-0.14220415 -0.027517026 0.06161707 0.24796143 -0.16422364 -0.075230554 -0.079989135 -0.20427462
0.1491419 -0.33704874 0.3061238 -0.34055525 -0.33996418 -0.20449996 0.06990983 0.25947616
0.2463982 0.22735496 0.20222561 -0.26555964 0.20771769 -0.085089736 -0.1727152 0.020739418
0.3373925 0.2832501 0.013834837 -0.2918884 0.27924463 0.0102296965 -0.33938292 -0.28866234
0.06941657 0.31210983 -0.13685945 0.28007582 -0.20370623 0.20509687 -0.2315668 -0.34233478
-0.17964791 -0.051054124 0.24928735 0.09841197 0.22163512 -0.07705785 -0.27658138 0.17049609
-0.045140143 0.22669533 -0.026904162 -0.1878548 -0.32001072 0.24369584 0.01749281 0.04442756
-0.19008894 0.01958303 -0.20178497 -0.2601977 -0.07083807 -0.26426747 0.15861352 -0.039629877
-0.16186957 -0.32855865 0.16628543 -0.32134968 -0.17562628 -0.2157951 0.11052713 0.14238769
-0.12836245 0.24756597 0.24534468 -0.26423192 0.24792525 0.095821425 -0.036658622 -0.06358122
-0.067312345 0.096876636 0.227898 -0.005122817 -0.09672635 0.027554343 0.07805173 0.33940515
-0.27072516 -0.08617285 -0.19598758 0.25744656 -0.06285051 0.25417727 -0.31572086 -0.11845794
0.31624493 0.07746498 -0.21274784 0.3400304 0.17847916 -0.3401071 -0.25930107 0.08240449
0.10429792 0.073445626 -0.022689547 0.2745401 0.10005376 0.16588093 -0.32484663 0.031784378
0.045444917 0.25952443 -0.20536621 0.2257539 -0.27213663 0.0018535173 -0.12698129 -0.33406645
-0.30889747 0.12615335 -0.22466755 0.13381799 0.24701217 -0.0701249 -0.19328164 0.0025744615
0.18252167 -0.11861686 -0.2991809 0.17922541 -0.2193838 -0.012514559 0.13927065 -0.24288385
0.32171738 -0.04952236 -0.21964914 0.041815814 0.28019348 0.04716863 -0.3262636 -0.05314157
0.031038253 -0.31764725 0.30480772 -0.34819266 -0.098877884 -0.14031546 0.18595852 0.10734664
0.14134882 0.085366935 -0.32613474 0.31748772 -0.20853916 -0.22690955 -0.02688476 -0.005111887

net.0.fft.0.weight f4 [256, 256]
00000000: 496b 5abd 9bca 35bd 40d0 aebc 36f5 573c
00000010: 1cf5 3b3d f200 cabc 9fd2 b8bc 711c 52bc
00000020: af5e 4b3c 2600 2ebd 08f9 34bd 883b 2ebd
00000030: 4719 1c3d 56ce 62bd 10d7 c2bc 1e09 793d
00000040: ca83 eb3c 7fcc 1f3d 4178 a03d c6d5 863c
00000050: 4006 bfbc 7c48 3e3d 6855 dcbc 08a1 58bc
00000060: e5cd 813d 2cc1 f93b 65f8 09bd 3dac 3ebd
00000070: fc29 1abd b1c9 52bd d7c7 fe3c 4dd4 22bd
00000080: 1e1f 513d d3c6 96bd 3b86 403d 2a2c b2bd
00000090: 144e f13b 3727 25bd 1cbf 793d 7e80 003d
000000a0: fc76 4f3b 24e0 9abc b859 893b cf30 f03c
000000b0: 69c8 573d da47 92bd 7a0b ebba 9cac cabc
000000c0: f544 8a3c 289f a23c bc64 133d c17c 8a3d
000000d0: 1308 993c d718 7f3d 3253 4e3b 25f1 ccbd
000000e0: ab5d be3c 36a6 ab3c 7f98 81bd 98b8 93bb
000000f0: c74c 33bd fa9e 93bc 87e6 a63c 3f61 963d
00000100: aa41 0d3d 18fb 113d 3e41 7dbd 21a9 43bd
00000110: 5189 1e3d d27c 94bd e0c6 8ebd c94e 013d
00000120: e0d2 e4bc 3cdd b13b 9c26 3b3d baf1 fa3b
00000130: e7a4 71bd eb31 7e3d d7b1 0bbd 8e41 5f3d
00000140: 5b12 07bd 431e e43c 4f72 0c3c bacc ccbc
00000150: 4f90 ce3b 8f6d 103d d329 c7bc dc32 2bbc
00000160: 4cda 18bd 00eb 7abd 9e8d 073d 0881 363d
00000170: c390 95bc 99fb a33d 3807 43bd 3e0f 9abc
00000180: 2eaf cebc 7230 e6bc 3b37 49bd cac3 f73c
00000190: 94b9 97bc 5622 2ebd c089 293d fec4 c7bc
000001a0: b4f3 173b 06ae b9bc a79e 293d 7c42 30bc
000001b0: 3a05 5bbd b1d8 443d b355 0c3d 2dd8 25bd
000001c0: 1886 203d 189c adbc 33c7 243c 7804 ce3b
000001d0: 9834 833d 0e6a cf3c bf61 35bd ea97 31bd
000001e0: cc0e 413d 5c46 88bd 2722 833d c6dc e9bc
000001f0: 5e21 b23c 26d9 ad3c cd39 923c c9a8 563d
00000200: b225 0e3d 22d5 bbbd 3424 23bd ab00 5a3a
00000210: ef77 1d3d cd1b f33c 8de1 d73b cf7d 0a3c
00000220: 6f57 d5bb c8e0 5bbd ab56 c2bb 6e9a 61bd
00000230: ee37 ee3d fd18 d3bc 933f 63bd 07c4 c93c
00000240: 7239 003d cad3 a73d e6f0 cfbb 91a5 5ebd
00000250: 1716 193d f032 5cbd 8055 a7bc c52f 2b3d
00000260: 88b9 f0bc 5878 33bd db28 853c ae74 063c
00000270: 51a1 233d 5b2a ee3c bc80 b7bd 48de 47bd
00000280: 13b5 9cbd cefb dc3c c396 76bc 7546 84bc
00000290: aeb7 743d 085b f53c 00cb 023d 6fc0 103d
000002a0: 82dc debc 8e30 693c 3301 da3c 5825 4cbd
000002b0: 0301 5ebd fe3c 313d 9ef9 f0b9 70d8 e33c
000002c0: 2e99 793d be64 e43a eaeb 093d ff1e 163c
000002d0: 50c6 073d 91ec c6bd 8d99 8abd 5603 b83c
000002e0: adee 8f3b a36c 0a3d d51d 0abd e9d7 22bd
000002f0: 83d4 46bd 8541 2b3b 40f2 70bc c500 043d
00000300: d101 8fbd beac f83c 7347 3cbd 8a59 1abd
00000310: 8aca d2bc 572d 943c 8e65 0b3d 6a6a 45bd
00000320: e88e 65bd c221 893c b05a 9a3c 72fb fc3b
00000330: fc3c 863c 4411 de3c 21bc 23bc 61ca ad3d
00000340: 2e9d 92bd a513 88bc 64aa 1e3d c9b0 ecbb
00000350: 614d 28bd 9f47 3fbb 9828 0dbd b389 023c
00000360: 1208 8f3c ce2c 9bbd 0e99 643d 9893 cf3c
00000370: 2ad6 053d 5529 83bc 74aa 70bd fd14 cdbd
00000380: c470 fbbc 02de 87bd e877 233d b1f0 8f3c
00000390: 3639 653d b2fd a6bd 5c7c b23c 0cfd 41bd
000003a0: f29f 1c3d 11ad f5bc 4ceb 783d 40b1 303d
000003b0: a60a af3c fe7a 803c 733b 133d e358 ab3d
000003c0: 5c6a 063b cbf6 59bd 6b12 26bd a8b9 a4bd
000003d0: 8022 033b 1a55 69bb 9373 603d 19f7 a9bb
000003e0: e107 e4bc a138 7e3c 8a3f a83c 31cd 5e3d
000003f0: 378f 413d 6c15 f43c c280 d43b 5ad5 aa3d
-0.05332497 -0.044382673 -0.021339536 0.013181021 0.04588805 -0.024658654 -0.02256137 -0.012824164
0.012412711 -0.04248061 -0.044182807 -0.042537242 0.038110044 -0.05537256 -0.02378419 0.06079971
0.028749365 0.039013382 0.078354366 0.016459357 -0.02331841 0.046455845 -0.026896194 -0.013221987
0.063380994 0.007621905 -0.033684153 -0.046550978 -0.037637696 -0.05146188 0.03110115 -0.039753247
0.051055066 -0.073621415 0.047003012 -0.0869983 0.007364044 -0.0403206 0.06097327 0.03137254
0.0031656614 -0.018905707 0.0041916035 0.029320149 0.05268136 -0.07142611 -0.0017932497 -0.02474051
0.016878584 0.019851282 0.03598474 0.06762076 0.018680608 0.06227955 0.0031482694 -0.10006932
0.023238024 0.020953279 -0.063279144 -0.0045080893 -0.043774392 -0.018020142 0.020373596 0.07342767
0.03448645 0.035639852 -0.061829798 -0.047768716 0.038705174 -0.0725037 -0.06971526 0.031569276
-0.027932584 0.0054279845 0.045691118 0.0076582106 -0.058995154 0.062059324 -0.03410515 0.054505877
-0.03297649 0.027846461 0.008572175 -0.024999965 0.006303824 0.035260733 -0.024311936 -0.010449138
-0.03731756 -0.06125927 0.03309404 0.044556648 -0.018257504 0.08006973 -0.047614306 -0.018806096
-0.025230017 -0.028099272 -0.049124938 0.030244727 -0.018521108 -0.042513214 0.041391134 -0.024385925
0.002318603 -0.022665989 0.04141107 -0.010758039 -0.05347178 0.048058216 0.034261417 -0.040489364
0.03919038 -0.021192595 0.010057258 0.006287154 0.06406516 0.025319126 -0.04428267 -0.043357767
0.047133252 -0.06654045 0.064029984 -0.028547656 0.021744426 0.021221709 0.017849827 0.05240706
0.034703918 -0.09171511 -0.039829448 0.00083161396 0.038444456 0.029676342 0.006588167 0.008452847
-0.006510667 -0.053681165 -0.005930742 -0.055078916 0.116317615 -0.025768751 -0.05548055 0.024629606
0.031304784 0.081946924 -0.006345856 -0.054357115 0.037374582 -0.053759515 -0.020426512 0.041793603
-0.029385343 -0.04381594 0.016254833 0.00820653 0.039948765 0.029072931 -0.08960101 -0.04879597
-0.07651725 0.026975539 -0.015050593 -0.016146878 0.059745483 0.029950634 0.031931877 0.03533977
-0.027204756 0.014232768 0.0266119 -0.0498403 -0.054200184 0.043271057 -0.00045962346 0.027813166
0.0609371 0.0017425043 0.03367225 0.0091626635 0.03314811 -0.0971309 -0.06767569 0.022462528
0.004392466 0.03379501 -0.033719856 -0.03975669 -0.04854251 0.0026131582 -0.014706194 0.032227296
-0.06982768 0.030355807 -0.045966577 -0.037683047 -0.025731344 0.018088026 0.034032397 -0.048197187
-0.05604449 0.01673973 0.018842071 0.0077204043 0.016386501 0.027107842 -0.009993584 0.08485866
-0.07158886 -0.01661093 0.038736716 -0.007223223 -0.04108942 -0.0029186977 -0.03446254 0.0079674
0.017459903 -0.07576905 0.055810027 0.025338933 0.032674946 -0.01601092 -0.058756307 -0.10013769
-0.03069342 -0.066341415 0.039909273 0.017570825 0.055962764 -0.08153857 0.021787815 -0.047360465
0.038238473 -0.029989751 0.06077127 0.04313779 0.021367382 0.015683647 0.035945367 0.08366563
0.0020510172 -0.053213876 -0.04054491 -0.080432236 0.0020009577 -0.0035603703 0.05479772 -0.005186927
-0.027835788 0.015516431 0.02053811 0.054394905 0.04725572 0.029795371 0.0064850757 0.08341475

net.0.fft.0.bias f4 [256]
00000000: 1c79 63bc f51a 7e3d 3bbc 81bd 21e0 013c
00000010: d894 013c 31bf 1b3d ac97 1d3c b948 513d
00000020: b5f2 8e3c fed0 1dbd 5233 10bd 1e1e 27bd
00000030: 6ac2 883c f414 5fbc b53f 693c 897d 2a3d
00000040: 9b66 1dbd 7c27 34bd 1ddb fe3c d879 63bd
00000050: 9eb8 76bd 8dee 9d3c cd05 ccbc 6bbf 65b9
00000060: 333c 82bd 5c1f 0ebb 2978 b1bc 8042 1abd
00000070: 1e3b 663c 7ea1 813d 8db5 1ebd 491a 1bbd
00000080: de0e 713d 3bad 02bd 62cd ff3c a220 073d
00000090: 5563 bb3c daed 953a bee9 f8bc 1658 00bd
000000a0: 7c47 453d 0c8c 0cbb 1821 3ebd 10ee 20bd
000000b0: ec81 bb3c 0489 5cbd 4bab 61bd 99fc ce3c
000000c0: e9ba bf3c 6807 003d d76d bdbc db8d f6bc
000000d0: c3cf 34bd ddc3 e33c 89e2 c63c 6a91 19bc
000000e0: 31aa 0bbd 303b 9ebc 2a04 27bd add6 1c3d
000000f0: edfe 1e3d 6997 ca3b 121a 46bd 9904 9a3d
00000100: 9733 733d 4bc4 673d e3d2 df3c 5e38 4cbd
00000110: 0792 eabc d227 e1bc 5dbc 063d 12aa 9a3c
00000120: a3b2 48bc 47f5 1abc 4c22 dcbb 4478 1c3d
00000130: 1154 8ebd 6bde 0abd adbb 16bd 901a a43c
00000140: d201 ca3c 6b3f 16bd 5c43 18bd b6b3 163d
00000150: fbd2 4bbd bb35 2a3d b376 35bd 40ca 20bd
00000160: 4f79 143d 5a65 2f3d cf9b b53c 8cf8 253d
00000170: e839 70bd fdb5 993d 0711 793d 863e 873c
00000180: 0f6b 72bc 670c 2a3c d9dd 2abd a165 893d
00000190: 26db 443c f1b5 8abd 611e 49bd f0f2 843c
000001a0: d7cf d83c d83c 4a3c 79fe c7bc 8cb3 87ba
000001b0: a0a5 72bd e72a 553d 608e 5cbd 16c7 5b3c
000001c0: 148d 61bd f3c1 1e3d 6763 153d 42f2 6ebd
000001d0: 2807 bcbc 6836 d43c 51a1 f53b ec1f 203d
000001e0: c1af 203c dc77 733c d2ab 703d 7822 6c3d
000001f0: ef11 a13c 6e3d 69bb ddb3 4fbd e44f a0bc
00000200: 97ec ba3c 7632 8ebd 2f6d 45bd 0502 0d3b
00000210: b138 003d f65b 593c 37f1 0abd 0f01 01bd
00000220: ff35 0d3c b4d2 28bd 57cf f3bc c440 4e3c
00000230: 9176 3c3d 28b6 053d c84f 673c 943f 2b3d
00000240: 6f78 693c f6ed 743d 821a b93d 77cf a6bc
00000250: 0be4 90bc 8ad0 36bd 32c2 e5ba 70cf ac3c
00000260: 2e45 55bd f919 4b3d 03b2 933c 33bd 3cbc
00000270: fe56 393d bc1f 67bd e6e2 1d3d adbd 26bd
00000280: fc34 0c3d f93a 32bd 8ac5 6b3d 0e7b ab3c
00000290: d833 ea3b 1f3c bfbc 492c 0cbc ef84 f33b
000002a0: dec3 32bd f37d 45bd b636 0dbd 7092 2e3d
000002b0: 397e d4bc 6425 61bd cdd2 86bc e15f d7bb
000002c0: f7da 22bc bfd0 6bbd b9b1 53bd 96c1 22bd
000002d0: 742b 62bb 8ec4 68bd 547f 723d b34c e83c
000002e0: 635a cebc 3960 abbc 03d7 d1bb 79b8 893c
000002f0: e87c 453d 67a8 f2bc 611a 22bc f485 5cbd
00000300: 4b4e b3bb 974a 6ebd 0b6f efba 8d5b 403d
00000310: bfd2 4d3d dc74 d73a 5209 823c 363a 0a3d
00000320: fdb7 853d de9b 313d 0aa5 9abc 7366 1bbd
00000330: 886e b3bb bc30 1f3d e7aa 2bbd 9232 6a3d
00000340: ced0 e03c 93f5 873d 2006 863d a64e 9f3c
00000350: 4cdd 84bc 35c5 30bd ee2b b33c 564d 753d
00000360: c657 51bd fe18 c53c 202b 6c3c 047f 5d3b
00000370: e542 7f3d b175 643b 822c 34bd f3d7 4a3d
00000380: 5142 3e3d 04e8 0ebd 1ecd 67bc b990 983c
00000390: 4f8b a1bb 96e0 5abb d509 513c ac29 af3c
000003a0: ee74 513d ab08 7fbc d8ce 673d 6e4a be3c
000003b0: f832 173d 7cc6 aabb 1b71 1d3d 19db 98ba
000003c0: e358 10bd d9e8 153b d51b 603d 23bd 693c
000003d0: 5473 693c a2ab e0bc 7c8d 523a e3f7 0bbb
000003e0: c414 14bd d132 d8bb 0aee eabc 80bf ae3c
000003f0: 4bd3 043d 987a 4cbd 1b81 10bd 40f8 4bbc
-0.013883855 0.062037427 -0.0633473 0.007926972 0.007909022 0.03802413 0.009618681 0.051094744
0.017449716 -0.03852939 -0.035205193 -0.040800206 0.016694266 -0.013615835 0.01423638 0.041623626
-0.03842793 -0.043982968 0.03111034 -0.05553612 -0.06023466 0.019278789 -0.02490511 -0.0002191045
-0.06359138 -0.0021686172 -0.021663742 -0.037661076 0.014052181 0.0632963 -0.03874736 -0.037866864
0.05885207 -0.031903487 0.031225864 0.032990105 0.022874514 0.0011438683 -0.030384894 -0.031334005
0.048163876 -0.002144578 -0.04641828 -0.039289534 0.0228891 -0.053841606 -0.055095 0.025266932
0.023404555 0.031257063 -0.023123665 -0.030096939 -0.04414345 0.027803356 0.024277942 -0.009373048
-0.034097854 -0.019315332 -0.040775456 0.03829067 0.038817335 0.0061826003 -0.048364706 0.07520408
0.05937537 0.056583684 0.027322238 -0.049858443 -0.028634084 -0.027484808 0.03289448 0.018879924
-0.012249622 -0.009457893 -0.0067179557 0.03820063 -0.06949628 -0.03390352 -0.036800075 0.020032197
0.024659071 -0.036681574 -0.037173614 0.03679248 -0.049761754 0.041555148 -0.044302654 -0.03925538
0.0362485 0.042821266 0.022169022 0.040520236 -0.058648974 0.07505415 0.060807254 0.016509306
-0.014796033 0.0103789335 -0.041715477 0.06708837 0.01201514 -0.06772984 -0.049101237 0.016229123
0.026466293 0.012343608 -0.024413334 -0.0010353192 -0.059239984 0.052042868 -0.053846717 0.013414165
-0.055066183 0.038759183 0.03647175 -0.058336504 -0.022952631 0.02590485 0.007496037 0.039092943
0.009807528 0.01486012 0.05875761 0.05765006 0.019661872 -0.0035589593 -0.05070864 -0.019569345
0.022817893 -0.069432184 -0.04819983 0.0021516096 0.031304065 0.013266554 -0.033921447 -0.03149515
0.008618831 -0.041216567 -0.029761953 0.0125886835 0.04601151 0.03264442 0.014118142 0.04180868
0.014249905 0.05979725 0.09038259 -0.020362599 -0.017686864 -0.044632472 -0.0017529188 0.021095008
-0.052067928 0.049585316 0.018029219 -0.011519718 0.045248978 -0.05642675 0.038546465 -0.040708233
0.034230217 -0.043513272 0.057561435 0.0209327 0.0071472935 -0.023344098 -0.00855548 0.0074316184
-0.043643825 -0.048215818 -0.034476005 0.042620122 -0.025939094 -0.0549673 -0.01645794 -0.006572709
-0.009939901 -0.057572123 -0.05168316 -0.0397354 -0.0034510763 -0.056828074 0.05920346 0.028356886
-0.025189584 -0.020919906 -0.006403805 0.016811596 0.048214823 -0.029621316 -0.0098939845 -0.053838685
-0.0054719797 -0.058176603 -0.0018267346 0.04696231 0.05024981 0.0016438025 0.015873585 0.03374692
0.065292336 0.043361537 -0.018877525 -0.0379395 -0.005475823 0.038864836 -0.041911032 0.057177134
0.027443316 0.066386364 0.06544137 0.019446682 -0.016218804 -0.04315682 0.021871533 0.059888206
-0.051109098 0.024059769 0.014414579 0.003379763 0.062319655 0.0034860189 -0.04398776 0.04952235
0.046449963 -0.034889236 -0.014148025 0.018623697 -0.004929937 -0.0033398024 0.012758692 0.021382175
0.051136903 -0.015566031 0.056593746 0.02322885 0.036913842 -0.0052116495 0.038437944 -0.0011661976
-0.03524102 0.0022874384 0.054714043 0.014266285 0.014248688 -0.02742559 0.0008031947 -0.0021357469
-0.036152616 -0.0065978547 -0.028677959 0.021331549 0.032428067 -0.049921602 -0.035279375 -0.012449324

net.0.fft.2.weight f4 [2, 256]
00000000: f7c3 9ebb c08a 97bd 4423 aebd 7184 513d
00000010: c5a8 5f3d 5a37 34bd 70bd b5bd 1cc3 4b3c
00000020: 9f8c 23bd 453c 5c3d 3ea4 063c 4a04 8fbd
00000030: 67fe 8b3c 50c1 86bd a164 e8bc 0f51 92bd
00000040: e10a 203c 7cda aaba f079 513d 4d0f 4cbd
00000050: 1ab5 3cbd 34f7 67bd 0568 6a3d e06d 12bd
00000060: 7140 6f3d ca99 edbc ae4c b0bb 7deb e23c
00000070: c611 e73b 77d8 633d 5f25 8d3c 25d6 43bd
00000080: dfd3 c5bc 8d87 3abd 1e96 2dbc 2621 11bc
00000090: de6c 22bd 2145 c93c 806f 403c 553c 1c3d
000000a0: b1df 9cbd 039f 213d f159 87bc 9d7b 9bbd
000000b0: e72f 14bd fb4c fdbc d639 92bd 0a32 64bd
000000c0: 8363 42bd 2341 28bd b678 d23c d2e9 83bd
000000d0: 0dc2 52bc 2b13 c9bd e841 413d e913 73bd
000000e0: 8068 283d c445 973d 8edf 97bd 97ba a1bc
000000f0: 8d65 2fbd f70f 5fbd 9f28 493d d1d2 6fbd
00000100: b562 afbc cfef 9abd fa2f 203d 30de 89bd
00000110: 84a4 e63c ee75 f13b 184b aa3c f15e 54bc
00000120: 6ff1 503c b10e b8bd 50ee 813c 04d4 92bd
00000130: 80e2 913d ec12 45bd 3fe3 e53c 08f8 a3bd
00000140: 40b0 853c cd72 813c a78c a2bd 911f b8bd
00000150: d7c4 033b a873 133d 9813 d7bc c12f e0bc
00000160: d621 11bc 2767 53bd 8d14 e53c d95b 403d
00000170: 4aa9 2dbd b4cd 85bd 30f3 ef3c 7e16 2c3c
00000180: e82a 8f3c 2d7f 29b8 0680 98bd 504f 243d
00000190: 509b 19bd 6f27 913d b608 043c f515 093d
000001a0: 4486 f63c c73e 00bd e25f 69bd 7a15 1c3d
000001b0: 2682 bdbd 1380 08bd 8eae 20bd b9f9 d13c
000001c0: d0c8 7d3d 596c a4bd d6c4 8bbd d369 913d
000001d0: 62bc 173d 731a 14bd 111d bebc 4bd8 c0bb
000001e0: 43e4 3e3d 6f20 aa3c 3e3a df3c 7ab8 cf3c
000001f0: cc10 943c a8db 41bd beb0 6bbd 72dc 77bc
00000200: 80b0 c0ba 0e6e e93c 46c7 17bd 0bf2 7abd
00000210: 62f8 823d 51f8 023d 8bf0 2b3d 4d44 67bd
00000220: 72a4 6cbb ede3 003d 83c7 98bd 3c98 193a
00000230: 5a1b 633d 8ed4 45bd 3520 9bbc 1155 b6bd
00000240: d6fc 7cbd 2599 4abd 1c89 163c a909 3fbd
00000250: 737b 8abd 63d4 bebc 4dc8 91bd 1de6 e6bc
00000260: fcd5 a8bd f5fc dcbc e347 84bc 28b1 4fbd
00000270: 701f 5cbc 21f5 b73c 35aa 713d 9e27 02bd
00000280: b76b b43c ecf5 a63b 8399 68bd d762 92bc
00000290: f540 0a3d 2222 c8bc b8a2 1d3d 8821 b53c
000002a0: 2661 3bbd f3fe 4c3d d4e8 8a3c 0d22 583c
000002b0: 3984 52bd e74d 903c a66c 13bd 7b65 a83c
000002c0: 59d3 08bc e6db 863d 217f 45bc cd1f 3d3c
000002d0: 45e5 82bd ad39 c8bd 227b 32bd 994a e73c
000002e0: 67cf 67bc ebdf f93c 5a10 aebc a046 743c
000002f0: 6a38 45bd e241 9f3d 572a 3cbd 616e 703c
00000300: 8555 d0bc 43af b33c 4929 33bd de3f 7fbd
00000310: 10f4 19bd 33f2 67bd 6f02 233d 01e9 35bd
00000320: 465a fa3c 0203 38bc 5cee 4cbd de06 ddbd
00000330: 8120 e9bc ccac 95bd b9a8 943d 2f00 813c
00000340: 38fb 00bd a1f4 5a3c 2b17 643d c957 00bd
00000350: aff2 b73b 4ac6 dcb9 85f6 5a3d 730e a3bd
00000360: dab1 48bd 2829 443c b36e 90bd df88 3d3d
00000370: 10c7 e1bc b420 c6bc dfba 65bd f8a4 ff3c
00000380: 6c35 7c3d 6925 27bc df16 fa3c 4111 2e3d
00000390: 7288 d83c 1a68 633c 8bf4 72bd cc52 7f3c
000003a0: e200 c8bc c72e 653d b9f4 2939 5530 f5bc
000003b0: c316 3f3c e539 443d 5818 3e3c 488b e9bc
000003c0: 6227 81bd 6080 603d f5f6 2c3d b29f 1b3d
000003d0: 6620 5d3d f8b5 6d3c e3d9 3f3d 2457 ea3c
000003e0: 9bee a7bd a97b 1a3d 2689 3ebd b5cb 28bd
000003f0: 0f06 bb3c a15a 22bd 515c 85bd bbde 4e3d
-0.004845138 -0.07399511 -0.0850282 0.051151697 0.05460431 -0.0439981 -0.08874023 0.012436654
-0.03992903 0.053768415 0.008217869 -0.0698324 0.017089082 -0.0657984 -0.028368296 -0.07144367
0.009768219 -0.0013035084 0.05114168 -0.04981928 -0.04607115 -0.056632236 0.057228107 -0.035749316
0.058411065 -0.029003996 -0.0053802347 0.02770018 0.0070516793 0.05562636 0.017229734 -0.047811646
-0.02414888 -0.045539428 -0.010594873 -0.008858001 -0.039654605 0.024569096 0.011745334 0.038143475
-0.07659853 0.039458286 -0.01652238 -0.07591937 -0.036178496 -0.030920496 -0.071399376 -0.055711783
-0.047458183 -0.041077744 0.025692325 -0.06441082 -0.012863648 -0.09818109 0.047181994 -0.05934516
0.041115284 0.073863536 -0.074156865 -0.019742293 -0.042821456 -0.054458585 0.049111005 -0.05855066
-0.021409372 -0.07565271 0.039108254 -0.06731832 0.028154619 0.0073687946 0.02078776 -0.012962089
0.012752875 -0.08987177 0.015860707 -0.07169345 0.071232796 -0.04811375 0.028062461 -0.080062926
0.016319394 0.015801812 -0.079369836 -0.08990396 0.002010634 0.03599897 -0.02625446 -0.02736652
-0.008858165 -0.051612046 0.027963901 0.046962593 -0.042397775 -0.065333754 0.029290766 0.010503409
0.017476514 -4.041118e-05 -0.074462935 0.0401147 -0.037501633 0.070875995 0.0080587175 0.033468205
0.03009332 -0.03130987 -0.056976207 0.03810642 -0.092533395 -0.033325266 -0.03922897 0.025631772
0.061959088 -0.08028478 -0.06824653 0.071002625 0.03704489 -0.036158036 -0.02320722 -0.005885159
0.046604406 0.020767419 0.027249452 0.02535652 0.018074416 -0.04732862 -0.0575416 -0.015128242
-0.0014701039 0.028494861 -0.037055276 -0.061265986 0.063950315 0.031975094 0.041977447 -0.05646162
-0.003610876 0.031467367 -0.07459929 0.00058591715 0.055446006 -0.04829841 -0.018936256 -0.08902944
-0.06176456 -0.049462456 0.009187963 -0.046640072 -0.06761827 -0.023294633 -0.071182825 -0.028185898
-0.08243939 -0.026976088 -0.01614756 -0.05070606 -0.01343523 0.022455754 0.059000213 -0.031776063
0.022024019 0.005095234 -0.056787025 -0.017869396 0.033753354 -0.024430338 0.03848526 0.022110716
-0.045746945 0.050047826 0.016956724 0.013191712 -0.05139563 0.017615272 -0.035992287 0.020556202
-0.00835117 0.06584911 -0.012054236 0.011543226 -0.06391386 -0.09776626 -0.04357446 0.028233813
-0.01414857 0.03050228 -0.021248031 0.014909416 -0.048149504 0.07776238 -0.045938816 0.014674754
-0.025431404 0.021934157 -0.043740544 -0.062316768 -0.03758627 -0.056627464 0.039797243 -0.044411663
0.030560624 -0.011231186 -0.050032005 -0.107923254 -0.028457882 -0.07308349 0.07258744 0.015747158
-0.03148958 0.013363988 0.055686157 -0.03133372 0.005613647 -0.00042109407 0.053457756 -0.0796174
-0.048997737 0.011972703 -0.07052364 0.04627311 -0.02756074 -0.024185516 -0.056086417 0.031206593
0.061574385 -0.01020179 0.030528484 0.042496923 0.02643225 0.0138798 -0.059315246 0.015583705
-0.024414483 0.055952813 0.00016208262 -0.029930273 0.011663142 0.047906775 0.011602484 -0.028508797
-0.0630634 0.054809928 0.042227704 0.037994094 0.053985976 0.014508717 0.046838652 0.028606005
-0.08199807 0.037715588 -0.046517514 -0.041209895 0.022830037 -0.03963721 -0.065117486 0.05050538

net.0.fft.2.bias f4 [2]
00000000: f955 82bc 59e7 df3c
-0.015910136 0.027331995
