ultra_critic_model.pt (torch, 79858 bytes, 10 tensors)

input.weight f4 [128, 10]
0	0xbeadbfaa	-0.3393529
1	0x3e38e99d	0.18057866
2	0xbd22d8db	-0.03975759
3	0x3de91f0e	0.11382876
4	0x3f08fcd9	0.53510815
5	0xbe444768	-0.19167864
6	0x3dfb7d04	0.12279704
7	0x3d8eab02	0.06966211
8	0xbcbe385f	-0.02322024
9	0x3e174e85	0.14776047
10	0x3e7197b3	0.23593025
11	0xbc252dcd	-0.010081721
12	0x3dc4a3bc	0.09601542
13	0x3e24c506	0.16090783
14	0xbee9f327	-0.45693323
15	0x3eb74ecd	0.35802308
16	0xbedaa91c	-0.42707145
17	0x3dc2d0cd	0.09512482
18	0x3d82df16	0.063902065
19	0xbe4f7fd6	-0.2026361
20	0x3e602c3d	0.21891876
21	0xbe9e5517	-0.30924293
22	0xbee6d776	-0.4508626
23	0x3eafb7c3	0.34319887
24	0x3da53864	0.08067396
25	0xbd65a8fa	-0.05606935
26	0xbddc70cd	-0.107637025
27	0x3dff09f5	0.12453071
28	0x3d6af4ba	0.057362296
29	0x3e0c6037	0.13708578
30	0x3f04d94d	0.51894075
31	0xbd54fdc4	-0.051999822
32	0xbeb3d0d7	-0.3512027
33	0xbed7d600	-0.42155457
34	0x3e4c7622	0.19966939
35	0xbddb3d7f	-0.10705089
36	0x3daf21de	0.085513815
37	0xbea094de	-0.31363577
38	0x3e8a3a7e	0.2699775
39	0xbd9c27ec	-0.07624802
40	0x3ed33dce	0.4125809
41	0xbcb0715a	-0.021538425
42	0x3e051044	0.12994486
43	0x3e3bc28b	0.18335931
44	0x3d7edd95	0.062223036
45	0x3dbb975b	0.09159728
46	0xbec3565c	-0.38151824
47	0xbe25632e	-0.16151115
48	0x3e1c78ef	0.15280508
49	0x3e9deea0	0.3084612
50	0x3f594c1b	0.8488175
51	0xbeaf50a9	-0.34241226
52	0xbd1b5fba	-0.03793309
53	0xbe43c4a9	-0.19117989
54	0x3e016ede	0.12639949
55	0xbca2dfaa	-0.019882042
56	0x3d693538	0.05693552
57	0xbe12c890	-0.14334321
58	0x3ed0d641	0.40788463
59	0xbe313d38	-0.1730851
60	0x3d9003f1	0.07032002
61	0x3ed02fed	0.40661564
62	0xbd85a5d0	-0.06525767
63	0x3f6bea18	0.92154074
64	0x3ede0a96	0.4336745
65	0xbe484704	-0.1955834
66	0x3e235907	0.1595193
67	0xbebbd2fd	-0.3668441
68	0x3ef319b3	0.47480544
69	0x3eb8f8ec	0.36127412
70	0x3d916b2d	0.0710052
71	0x3e00c429	0.12574829
72	0xbee2ae39	-0.44273546
73	0x3ecd43bd	0.40090743
74	0xbe79ec86	-0.24406633
75	0x3bba1a3e	0.005679398
76	0x3e3273f9	0.17427053
77	0xbe6e7edd	-0.23290582
78	0x3ef6881f	0.48150727
79	0xbea1d886	-0.31610507
80	0x3e3c668c	0.18398494
81	0xbdddcf20	-0.108305216
82	0xbf1bac91	-0.6081019
83	0xbeb86ec3	-0.36022004
84	0x3ea2beaa	0.3178609
85	0xbdc1162c	-0.09428057
86	0x3ea22a7c	0.31673038
87	0x3c7de99f	0.015497594
88	0xbedf67ff	-0.4363403
89	0x3d9e2dea	0.07723601
90	0xbe9cfd72	-0.30662113
91	0xbe559751	-0.20858504
92	0x3d2bf52f	0.041981872
93	0x3f14ca52	0.58121216
94	0xbe9134e0	-0.28360653
95	0xbe1f8655	-0.15578587
96	0xbdc68333	-0.09692993
97	0xbd43533e	-0.047686808
98	0xbea9eda8	-0.3318913
99	0xbe0613f4	-0.13093549
100	0xbd9cbea4	-0.07653549
101	0xbd1e1c4a	-0.038601197
102	0xbda38a2b	-0.07985338
103	0x3f0968fb	0.5367581
104	0xbe0ee08c	-0.13952845
105	0x3e2f7356	0.17133841
106	0xbe13ac8b	-0.14421289
107	0x3de4f995	0.111804165
108	0xbda46a78	-0.0802812
109	0xbe8cd224	-0.27504075
110	0x3f11226d	0.56693155
111	0xbe84c0de	-0.25928396
112	0x3e4eb620	0.20186663
113	0xbdf4bebc	-0.11950442
114	0x3e1c469f	0.15261315
115	0xbc9fab23	-0.019490784
116	0x3e5c6da7	0.21526204
117	0xbe2f999e	-0.17148444
118	0x3ecbf85e	0.39837927
119	0x3e0b6fdc	0.1361689
120	0x3e5c02bc	0.21485418
121	0xbee46b81	-0.4461327
122	0x3d8e6db6	0.069545195
123	0x3e3cc864	0.18435818
124	0x3e9ad188	0.30237985
125	0xbe690fa4	-0.22759873
126	0x3ddc8dca	0.107692316
127	0xbc4dc743	-0.012559715
128	0x3dfd5f8d	0.123717405
129	0xbeac8d63	-0.3370162
130	0xbdffea0c	-0.12495813
131	0x3aa55066	0.0012612462
132	0x3d3f38a4	0.046684876
133	0x3d0f78f2	0.03502745
134	0x3f0de495	0.55426913
135	0x3e1fe64e	0.15615198
136	0x3ea6f14f	0.3260598
137	0xbde3cfe1	-0.11123634
138	0x3cfabe0b	0.030608198
139	0x3bc8f3db	0.0061325855
140	0xbcc15f67	-0.023605062
141	0x3e074296	0.13208994
142	0x3e6417f6	0.22274765
143	0x3e1fd5a1	0.15608837
144	0xbe9ff88f	-0.31244323
145	0x3d4c4caa	0.0498778
146	0xbe89858f	-0.2685971
147	0xbe10638f	-0.14100479
148	0xbea3be51	-0.31981137
149	0x3dceb1ce	0.10092507
150	0x3ecf2970	0.40461302
151	0x3e9f2ebd	0.31090346
152	0xbcda2c9e	-0.026632603
153	0xbd8d0e38	-0.06887478
154	0x3ea0a93c	0.31379116
155	0x3e898d0a	0.26865417
156	0xbeaaba1b	-0.33345112
157	0xbdddab5e	-0.10823701
158	0x3e562afb	0.20914833
159	0x3ded6500	0.1159153
160	0x3ef06699	0.46953276
161	0xbdda9a94	-0.10674015
162	0xbde66e89	-0.11251552
163	0x3e666c31	0.22502209
164	0x3e1730e8	0.1476475
165	0x3d266932	0.040627666
166	0xbe9e390b	-0.30902895
167	0xbe2b96c0	-0.16756725
168	0x3cc97782	0.024593119
169	0x3da6f57c	0.08152291
170	0x3e66e7ea	0.22549406
171	0xbe529d7a	-0.20567885
172	0x3e0373f3	0.128372
173	0x3e82f011	0.2557378
174	0xbe8ea4d8	-0.2786014
175	0xbb7ceced	-0.0038593367
176	0x3d8c632e	0.068548545
177	0xbe8ecfae	-0.27892822
178	0x3e9a3694	0.30119765
179	0xbe3ee96a	-0.18643728
180	0x3d1a5948	0.0376828
181	0xbda6b528	-0.081400216
182	0xbe03fde8	-0.12889826
183	0x3e0c3391	0.13691546
184	0x3eec32f5	0.46132627
185	0x3e1e38b6	0.15451321
186	0x3ea7d2bc	0.32777965
187	0xbe64ca40	-0.22342777
188	0x3d859efa	0.06524463
189	0xbc15d3bb	-0.009144719
190	0x3ebf96d5	0.37419763
191	0xbeaadb1a	-0.33370286
192	0xbe404c2a	-0.18779054
193	0xbdfa7ce2	-0.12230851
194	0xbd00ec9b	-0.031475645
195	0x3dd228c1	0.102616794
196	0xbe594821	-0.21218921
197	0x3cbf6fcd	0.02336874
198	0x3f0e3cdc	0.55561614
199	0x3e40106c	0.18756264
200	0xbf552ba7	-0.83269733
201	0xbd37cf88	-0.04487565
202	0xbe852174	-0.26002085
203	0xbe2f69ab	-0.17130153
204	0xbe1a3a25	-0.15061243
205	0xbc4046cb	-0.011735628
206	0xbdefe3e6	-0.1171339
207	0x3e49f241	0.19721319
208	0xbe08d45f	-0.13362263
209	0x3dbad160	0.09121966
210	0x3d802926	0.062578484
211	0xbec98ed6	-0.39366788
212	0xbe72d750	-0.23714948
213	0xbd872a25	-0.06599835
214	0xbe469397	-0.19392239
215	0x3e353ae6	0.17698249
216	0xbc4f71c9	-0.012661406
217	0x3eb05ba0	0.34444904
218	0x3d59cf44	0.05317618
219	0x3e08d4f7	0.1336249
220	0x3e4875be	0.19576165
221	0x3d9bc6cc	0.07606277
222	0x3f2e0e80	0.67990875
223	0xbe30873d	-0.1723909
224	0xbe83847f	-0.25687024
225	0x3e9227fb	0.28546128
226	0xba81a583	-0.0009891245
227	0xbd3e9060	-0.046524405
228	0xbe891e64	-0.26781
229	0xbe36f3a0	-0.17866373
230	0x3e757ad3	0.23972635
231	0x3e7c78c1	0.24655439
232	0x3e407a5d	0.18796678
233	0x3d1b02fd	0.037844647
234	0x3d3c27b2	0.045936294
235	0x3e3f1f4b	0.18664281
236	0xbe9b1b07	-0.30294058
237	0xbe99cbf1	-0.30038407
238	0xbe5a56a6	-0.21322116
239	0x3d758789	0.05994371
240	0xbe882a68	-0.26594853
241	0xbe6777a4	-0.22604233
242	0xbee057b6	-0.43816918
243	0xbf1a898e	-0.6036614
244	0x3e4a02ef	0.19727682
245	0x3c58474a	0.01320059
246	0xbd86df3c	-0.06585547
247	0xbe76c846	-0.24099836
248	0x3f227cd8	0.63471746
249	0x3e29ebc1	0.16593839
250	0xbf54baf0	-0.83097744
251	0xbe8e53f2	-0.2779842
252	0xbde53629	-0.11191971
253	0xbea74c11	-0.32675222
254	0xbe677c7f	-0.22606085
255	0xbeae8156	-0.3408305

input.bias f4 [128]
0	0x3e0fbabd	0.14036079
1	0xbcc779e9	-0.024350123
2	0x3daff79b	0.08592149
3	0x3ddb2dc3	0.10702088
4	0xbe4c1461	-0.19929649
5	0x3e7cf057	0.24701057
6	0x3e8aae84	0.2708627
7	0x3e3db709	0.18526854
8	0x3dcc8ca3	0.09987762
9	0xbe4b0616	-0.1982654
10	0x3ed47543	0.41495714
11	0x3e0eda83	0.13950543
12	0x3db40132	0.087892905
13	0xbc1b81a1	-0.009491355
14	0x3d772074	0.060333684
15	0x3af651ce	0.001879269
16	0xbe8a45b0	-0.27006292
17	0x3d97c199	0.07409973
18	0xbe8d4004	-0.27587903
19	0x3ddc9d09	0.107721396
20	0xbe681215	-0.22663148
21	0x3ddcfac5	0.10790018
22	0x3d84bc94	0.06481281
23	0x3dad273b	0.08454748
24	0xbe5863fa	-0.21131888
25	0x3c3f2f16	0.011668941
26	0xbe0c6290	-0.13709474
27	0x3ea12cda	0.31479532
28	0xbe18d65d	-0.14925523
29	0x3e173759	0.14767207
30	0x3ed1f453	0.41006717
31	0x3dd41605	0.103557624
32	0x3d7110d6	0.058853947
33	0xbe406a8f	-0.18790649
34	0xbe945c94	-0.28976882
35	0x3e97d5f1	0.29655412
36	0x3e4622d6	0.19349226
37	0x3d497bdb	0.049190383
38	0xbbecb6da	-0.007223946
39	0x3ddf2747	0.108961634
40	0xbdbb22e8	-0.09137517
41	0xbd72c993	-0.059274267
42	0x3e0bb053	0.13641481
43	0x3d2bf3fb	0.041980725
44	0x3e63d22e	0.22248146
45	0x3e6bb3a8	0.23017752
46	0x3da09175	0.07840244
47	0xbe00f5a5	-0.12593706
48	0xbeb5b1b2	-0.35487133
49	0xbdc55394	-0.09635082
50	0x3d61ee52	0.05515892
51	0xbe977073	-0.2957798
52	0x3e988d4f	0.2979531
53	0x3e25caf3	0.161907
54	0x3e40eb09	0.18839659
55	0xbe3bb1fb	-0.18329613
56	0xbe97bd06	-0.296364
57	0xbd18093e	-0.03711819
58	0x3e747b22	0.23875096
59	0x3c48ff1b	0.012267853
60	0x3ce4966d	0.02790376
61	0x3ea155bd	0.31510726
62	0xbe1cff68	-0.15331805
63	0x3c1c7c49	0.009551116
64	0xbc850e57	-0.01624219
65	0x3d8c618a	0.068545416
66	0x3ec79298	0.3897903
67	0x3dc158e2	0.09440781
68	0x3de4bb3a	0.11168523
69	0x3d123185	0.035691757
70	0x3e02bc52	0.12767151
71	0x3daf561a	0.085613444
72	0xbe7c7832	-0.24655226
73	0x3e82d3f2	0.25552326
74	0xbe849445	-0.2589437
75	0xbc66e1f7	-0.01409196
76	0x3e68555c	0.22688812
77	0x3e77aa1d	0.24185987
78	0xbc56b8d9	-0.013105595
79	0xbdbb59dd	-0.091479994
80	0x3ea0be35	0.31395116
81	0x3e386eb0	0.18010974
82	0xbcf5f32c	-0.03002318
83	0x3eb59c6f	0.35470912
84	0xbdd9f7a6	-0.10642938
85	0x3e1af99e	0.15134284
86	0x3eb08a81	0.3448067
87	0x3affc2e2	0.0019513036
88	0x3c97eb58	0.018544838
89	0x3e052ea7	0.13006078
90	0xbe3526d3	-0.17690592
91	0xbd7c5593	-0.061605047
92	0x3d7a931f	0.06117546
93	0xbc7d68e8	-0.015466906
94	0xbc47440e	-0.012162222
95	0x3de67baa	0.11254056
96	0x3e40e538	0.1883744
97	0xbe15a7cc	-0.1461479
98	0xbe3aff7c	-0.18261522
99	0x3e659e24	0.22423607
100	0xbdcca6c5	-0.09992746
101	0x3db0b72a	0.08628686
102	0xbcaa0f92	-0.020759378
103	0x3eac2849	0.33624485
104	0xbe05bbd5	-0.13059933
105	0xba261068	-0.0006334842
106	0xbdc0634b	-0.09393939
107	0x3e8e6e61	0.27818587
108	0x3e906241	0.28199962
109	0x3d2bf715	0.041983683
110	0xbc765d88	-0.015036948
111	0xbda3c2fe	-0.07996176
112	0xbe14d323	-0.14533667
113	0xbec59408	-0.385895
114	0xbd96664c	-0.0734373
115	0x3e02ddcb	0.1277992
116	0x3e8d4ebc	0.27599132
117	0xbe6fc1ae	-0.23413727
118	0x3e7f96df	0.24959897
119	0x3e80419a	0.2505005
120	0x3d098250	0.03357154
121	0x3eb7cf17	0.35900185
122	0xbe73cb62	-0.23808053
123	0x3e6d995c	0.23203033
124	0x3ea46419	0.32107618
125	0xbdd2afcd	-0.102874376
126	0xbe005d88	-0.1253568
127	0x3dec100d	0.11526499

layer_norm.weight f4 [128]
0	0x3f9c7636	1.2223575
1	0x3f906061	1.1279413
2	0x3f525ea1	0.8217564
3	0x3f872654	1.0558572
4	0x3f63b174	0.88942647
5	0x3f900cf4	1.1253953
6	0x3fa9a4ab	1.3253378
7	0x3f90bab0	1.1306973
8	0x3fc215af	1.5162867
9	0x3f83a75a	1.0285447
10	0x3f847f63	1.0351375
11	0x3fa37999	1.2771484
12	0x3fa897e6	1.3171356
13	0x3fb65cc4	1.424706
14	0x3f7a34ca	0.977368
15	0x3f775030	0.9660673
16	0x3f648304	0.89262414
17	0x3f994d4b	1.1976713
18	0x3fc548bc	1.5412822
19	0x3f2efbb0	0.68352795
20	0x3faffc55	1.3748881
21	0x3f97d0ef	1.1860636
22	0x3fb6e420	1.4288368
23	0x3f59525e	0.8489131
24	0x3f9cdca0	1.225483
25	0x3fb9f528	1.4527941
26	0x400d49e9	2.207636
27	0x3f6656ba	0.89976084
28	0x3f77199b	0.96523446
29	0x3f84cfd5	1.0375925
30	0x3f64d689	0.89389855
31	0x3fa66755	1.3000284
32	0x3f5f7834	0.8729279
33	0x3f6b0970	0.91811275
34	0x3fb1c389	1.3887798
35	0x3f70cca8	0.9406228
36	0x3fbe2b1b	1.4856905
37	0x3fa2e19d	1.2725102
38	0x3fb6d0be	1.4282453
39	0x3fafd162	1.3735774
40	0x400ad033	2.1689575
41	0x3fc5ba9f	1.5447577
42	0x3f90817d	1.1289517
43	0x3fb09010	1.3793964
44	0x3fc62a72	1.5481703
45	0x3f4d24be	0.8013419
46	0x3fc68d61	1.5511895
47	0x3fb04ac8	1.3772821
48	0x3fa51dfa	1.2899773
49	0x3f611411	0.87921244
50	0x3fa5a9ce	1.2942445
51	0x3fd12105	1.6338202
52	0x3fa5a1ff	1.2940062
53	0x3fd893a9	1.6920062
54	0x3fcca9df	1.598934
55	0x3f759baf	0.9594068
56	0x3fa1fe4d	1.2655731
57	0x3f994e57	1.1977032
58	0x3f52723d	0.82205564
59	0x3ff67873	1.9255508
60	0x3fb64e98	1.4242735
61	0x3f9fcf22	1.2485087
62	0x3f5c10db	0.8596322
63	0x3fa0f5b5	1.2574984
64	0x3f5270d2	0.822034
65	0x3f8794a9	1.0592242
66	0x3f51f87a	0.8201977
67	0x3f9fefbc	1.2495036
68	0x3f7a7a95	0.97843295
69	0x3fb73274	1.4312272
70	0x3f9aa745	1.2082297
71	0x3f896476	1.0733783
72	0x3fe39760	1.7780571
73	0x3fc62949	1.5481349
74	0x3fe94522	1.8224223
75	0x3fb1b864	1.3884397
76	0x3fc18908	1.5119944
77	0x3f9301f3	1.148497
78	0x3f93176c	1.1491523
79	0x3fa7f8d4	1.3122811
80	0x3f92fb69	1.1482974
81	0x3fb939c8	1.4470758
82	0x3fb23634	1.3922791
83	0x3f8c90d5	1.0981699
84	0x3faf1061	1.3676873
85	0x3fc8a79b	1.5676149
86	0x3fb0a9b1	1.3801786
87	0x3fa25a6d	1.2683846
88	0x3f544321	0.8291493
89	0x3f88cf0b	1.0688184
90	0x3fa2d06b	1.2719854
91	0x3f51caaa	0.81949866
92	0x3f78542b	0.9700343
93	0x3fd82772	1.6887038
94	0x3fe915eb	1.8209814
95	0x3f7f5e1a	0.9975296
96	0x3fb2b01d	1.3959996
97	0x3fb9a437	1.4503239
98	0x3fa4d727	1.2878159
99	0x3f5b31bf	0.8562278
100	0x3f7e5dc4	0.99361825
101	0x3fb9cbea	1.4515355
102	0x3fbd1c9d	1.4774357
103	0x3f4c8adb	0.79899377
104	0x3f61c39d	0.8818911
105	0x3f6e5fc9	0.93114907
106	0x3f8af179	1.0854942
107	0x3f73bd64	0.9521086
108	0x3f8db7fe	1.1071775
109	0x3fa244bf	1.267723
110	0x3f6f16fe	0.9339446
111	0x3fa1ad4f	1.2631015
112	0x3f70f68e	0.9412621
113	0x3fc034a8	1.501607
114	0x3fcfca38	1.6233587
115	0x3fad0f43	1.3520283
116	0x3faed757	1.3659467
117	0x3ff84687	1.9396523
118	0x3fdaacc6	1.7083976
119	0x3fad075d	1.3517872
120	0x3f95d0d2	1.1704352
121	0x3fa38f01	1.2778016
122	0x3fa6775c	1.3005176
123	0x3f73310e	0.94996727
124	0x3fb11399	1.3834106
125	0x3f8fb236	1.1226261
126	0x3f62c532	0.88582146
127	0x3fac654b	1.3468412

layer_norm.bias f4 [128]
0	0xbca2ae4e	-0.019858506
1	0xbe83cc09	-0.25741604
2	0xbe6f95a8	-0.23396933
3	0xbe2996bb	-0.16561405
4	0xbdf43a02	-0.119251266
5	0xbe99b85a	-0.30023462
6	0xbca24b07	-0.019811166
7	0xbd87386c	-0.066025585
8	0x3dcf20d3	0.101136826
9	0xbe4807e2	-0.19534257
10	0xbdc67f97	-0.096923046
11	0xbe6f03ae	-0.23341247
12	0xbd6f56ef	-0.058432516
13	0x3d6f7a6b	0.058466356
14	0xbd9d02c6	-0.076665446
15	0xbe3c5b19	-0.18394126
16	0xbe020155	-0.1269582
17	0xbd40fb5c	-0.047114715
18	0xbce7142e	-0.028207865
19	0xbe794af1	-0.24344994
20	0xbe30d51b	-0.17268793
21	0xbe88292f	-0.2659392
22	0xbd6d82d8	-0.05798611
23	0xbe5eb487	-0.21748553
24	0xbd6eb318	-0.058276266
25	0xbdde37de	-0.108504996
26	0xbdbad020	-0.09121728
27	0xbdfd9932	-0.12382735
28	0xbe0b7207	-0.13617717
29	0xbe3d3310	-0.1847651
30	0xbe1c0536	-0.15236363
31	0x3d141b93	0.03615911
32	0xbea44484	-0.32083523
33	0xbe2b5ba4	-0.16734177
34	0xbd92d535	-0.07169572
35	0xbe1bb8d5	-0.15207227
36	0x3c97af9f	0.01851636
37	0x3cc38b42	0.023870114
38	0xbdcbf874	-0.09959498
39	0xbdb5e5a4	-0.08881691
40	0xbdb690a4	-0.08914307
41	0xbf2002e3	-0.62504405
42	0xbe03dd73	-0.12877445
43	0xbdd5582d	-0.10417209
44	0x3d2886a8	0.041144043
45	0xbf052ddb	-0.52023095
46	0x3d438ece	0.04774361
47	0xbc62c7b6	-0.01384156
48	0xbe93fb72	-0.28902775
49	0xbdc2bd84	-0.095088035
50	0xbd1a0404	-0.037601486
51	0xbdb51e85	-0.08843712
52	0xbe148c94	-0.14506751
53	0x3b35e5f7	0.0027755478
54	0xbdb39289	-0.08768184
55	0xbe9161e6	-0.28395003
56	0xbe39cff7	-0.18145739
57	0xbd4bc981	-0.049752716
58	0xbe999b89	-0.30001476
59	0xbd1e54f3	-0.038655233
60	0xbdd47892	-0.103745595
61	0xbdbb3812	-0.09141554
62	0xbe4a668c	-0.19765681
63	0xbe11d6a4	-0.14242035
64	0xbe1b6dab	-0.15178554
65	0xbdc756a7	-0.097333245
66	0xbe4e5aa5	-0.20151766
67	0xbe058817	-0.13040195
68	0xbd5661df	-0.05233943
69	0x3d2917ef	0.04128259
70	0xbe22ab53	-0.15885668
71	0xbd830335	-0.06397096
72	0xbd9294ee	-0.07157312
73	0xbed4322e	-0.41444534
74	0xbe25980f	-0.16171287
75	0xbe23ceda	-0.15996876
76	0xbe59b813	-0.21261625
77	0xbc624e48	-0.013812609
78	0xbdb0c39f	-0.08631062
79	0xbdf47fbf	-0.11938428
80	0xbda6de75	-0.08147899
81	0x3d81c90a	0.06337173
82	0xbdfdfe97	-0.12402075
83	0x3dc3c069	0.09558184
84	0xbd8d32df	-0.068944685
85	0xbdc1472e	-0.094374046
86	0xbdb3ba99	-0.08775825
87	0xbe3d6298	-0.18494642
88	0xbe65823b	-0.2241296
89	0xbe00a92e	-0.12564537
90	0xbe4e0b6a	-0.20121542
91	0xbe90a1f8	-0.28248572
92	0xbde0affe	-0.10971068
93	0xbb567ed6	-0.0032729409
94	0xbdb53dcf	-0.0884968
95	0xbd31d48e	-0.0434156
96	0xbdd3826a	-0.10327609
97	0xbdeaee6c	-0.114712566
98	0xbd3c51ca	-0.045976438
99	0xbde818ea	-0.11332877
100	0xbeaf2c22	-0.34213358
101	0xbc8bcb61	-0.017064752
102	0xbdfa69d9	-0.1222722
103	0xbe306a60	-0.17228079
104	0xbe625ab3	-0.22104912
105	0xbe878ac1	-0.26473048
106	0xbd94b031	-0.07260168
107	0xbdf3136d	-0.118689395
108	0xbe53117b	-0.20612137
109	0x3bf754ba	0.007547942
110	0xbdfecfb2	-0.124419585
111	0xbe2a8f24	-0.16656166
112	0xbe64efa6	-0.22357044
113	0xbe1096a6	-0.14119968
114	0xbe41cb6c	-0.18925256
115	0xbe02d3ab	-0.12776057
116	0xbdf7660b	-0.1208001
117	0x3c6250c9	0.013813206
118	0x3ce266d8	0.02763693
119	0xbe281e34	-0.16417772
120	0xbe145aed	-0.1448781
121	0xbe3679c0	-0.17819881
122	0xbd39152c	-0.045186207
123	0xbde5104d	-0.1118475
124	0x3c7dc411	0.01548864
125	0xbe2a1d88	-0.16612828
126	0xbe3701b6	-0.17871746
127	0x3d081dff	0.03323173

shared.1.weight f4 [128, 128]
0	0x3e69c66f	0.22829603
1	0x3db33b72	0.08751573
2	0x3e4bf31a	0.19916955
3	0x3e36f750	0.1786778
4	0x3db03017	0.086029224
5	0x3e2c8e8f	0.16851257
6	0x3e18d4bb	0.149249
7	0x3ca0a0d9	0.019607948
8	0x3e94c544	0.29056752
9	0x3df2d24a	0.11856516
10	0x3e11eaf2	0.14249781
11	0x3e4b0952	0.19827774
12	0x3e18dc8a	0.14927879
13	0xbe1a312d	-0.15057822
14	0x3d8eb37e	0.06967829
15	0x3d571a43	0.05251528
16	0x3e1405a4	0.14455277
17	0xbdd95545	-0.10611967
18	0xbe55aafc	-0.20866007
19	0x3dc4b192	0.09604181
20	0xbef57fb6	-0.47948998
21	0xbe2dd34a	-0.16975132
22	0x3e5b4df3	0.21416454
23	0xbd1bc8a1	-0.03803313
24	0x3e754d5f	0.23955296
25	0xbf836038	-1.0263739
26	0xbe8c6b85	-0.2742578
27	0x3d9e5f97	0.07733076
28	0x3b541701	0.0032362344
29	0x3c17a3bb	0.009255345
30	0x3def0e92	0.11672701
31	0xbe2bbdc5	-0.1677161
32	0x3e27de38	0.16393363
33	0x3dd7e02f	0.105408065
34	0x3e3047a0	0.17214823
35	0x3cab8096	0.020935338
36	0xbe98779e	-0.2977876
37	0xbde8b13f	-0.11361932
38	0xbeab47ad	-0.33453122
39	0xbb768a7e	-0.003761917
40	0xbf0e4037	-0.55566734
41	0x3e478f6c	0.19488305
42	0xbd878517	-0.06617182
43	0x3e246873	0.16055469
44	0x3dfbbcfb	0.122919045
45	0x3e1638c4	0.14670092
46	0xbefa791a	-0.48920518
47	0xbe992dbb	-0.29917702
48	0x3e8f9556	0.28043622
49	0x3e09b679	0.13448514
50	0x3e65fdd2	0.22460106
51	0xbef2fadf	-0.47457024
52	0x3e998588	0.2998469
53	0x3e1a5c00	0.15074158
54	0x3e9aae22	0.30210978
55	0x3d3a75b3	0.045522403
56	0x3e022741	0.12710287
57	0x3cdcce6d	0.0269539
58	0x3deece6d	0.11660466
59	0x3e9de5ba	0.3083933
60	0xbd416940	-0.047219515
61	0x3d611f6d	0.05496161
62	0x3e0d264e	0.13784143
63	0xbf165a96	-0.58731973
64	0x3d82c8e8	0.06385976
65	0x3e3416f2	0.17586878
66	0x3d7026da	0.0586308
67	0x3d950b0f	0.072775
68	0x3d820b9c	0.063498706
69	0xbebae6fa	-0.36504346
70	0x3e341cdd	0.17589135
71	0xbe117bef	-0.14207433
72	0xbe77e657	-0.24208961
73	0x3e81fe13	0.25389156
74	0xbd4564b0	-0.048191726
75	0xbaa2a866	-0.0012409806
76	0x3e164631	0.14675213
77	0x3df5a2c6	0.11993937
78	0xbf03b730	-0.51451397
79	0x3e919234	0.28431857
80	0x3d88f45f	0.06687235
81	0xbf084443	-0.5322916
82	0x3ea72718	0.32647014
83	0x3d514103	0.05108739
84	0xbd4502a8	-0.048098236
85	0xbde6c938	-0.11268848
86	0xbcde1cc6	-0.02711333
87	0xbe9481aa	-0.29005176
88	0x3d592e45	0.05302264
89	0x3d6b5614	0.057455137
90	0x3dedd099	0.116120525
91	0x3e0810db	0.1328768
92	0x3dcfc6a4	0.101453096
93	0xbdee7442	-0.11643268
94	0x3eab7908	0.33490777
95	0x3df4591c	0.11931059
96	0x3e8a8b33	0.27059326
97	0x3cb8baa0	0.022549927
98	0xbf609b65	-0.87737113
99	0x3e1118f2	0.14169672
100	0x3d6a34ca	0.05717925
101	0x3ebcc964	0.368724
102	0xbb7b0235	-0.0038300876
103	0x3e048b8e	0.12943861
104	0x3dcb333b	0.09921881
105	0x3d8e4e12	0.069484845
106	0x3c069f74	0.0082167275
107	0xbda5785a	-0.08079596
108	0xbc7b541b	-0.0153398765
109	0xbd83d89d	-0.064378
110	0x3e2bafa0	0.16766214
111	0x3e003e9a	0.1252388
112	0x3e22ebdb	0.15910284
113	0xbd054471	-0.032535974
114	0xbef8c7d0	-0.48589945
115	0x3cd0e976	0.025501948
116	0x3db8b1b1	0.09018267
117	0xbe666c6d	-0.22502299
118	0xbec645a9	-0.3872502
119	0xbe596032	-0.21228102
120	0x3e32d42d	0.17463751
121	0x3d680012	0.056640692
122	0x3e027ecd	0.12743683
123	0x3d3eb7e6	0.046562098
124	0x3ddf52e6	0.109044835
125	0x3e05b43d	0.13057037
126	0x3c7069c6	0.014673656
127	0x3d45c0ef	0.0482797
128	0x3e4048ca	0.18777767
129	0x3dc76b66	0.097372815
130	0xbd12e5e5	-0.035863776
131	0x3d7f60d6	0.06234821
132	0x3d24e275	0.04025503
133	0x3d99054d	0.07471714
134	0x3d9607dd	0.073257186
135	0x3e229b97	0.15879665
136	0x3e413b88	0.18870366
137	0x3ddac69a	0.106824115
138	0x3d101f2a	0.03518597
139	0x3d8261c4	0.063663036
140	0xbcc65f87	-0.024215473
141	0xbe68b835	-0.2272652
142	0x3d6ba42f	0.057529625
143	0x3d815ed1	0.06316913
144	0x3e2a417c	0.16626543
145	0xbc9158b7	-0.017742498
146	0xbde7c65b	-0.1131713
147	0x3da96900	0.0827198
148	0xbe813ab0	-0.25240088
149	0xbe33e72e	-0.17568657
150	0x3e72fdca	0.23729625
151	0x3e087ce8	0.13328898
152	0x3dc5a823	0.0965121
153	0xbec1d932	-0.3786102
154	0xbea2d9f0	-0.31806898
155	0x3d82ffff	0.06396484
156	0x3df3d599	0.11905975
157	0x3d183006	0.037155174
158	0x3defa46c	0.11701283
159	0xbe8f1e26	-0.2795269
160	0x3e3b5018	0.18292272
161	0x3cb088e5	0.021549651
162	0x3e0b0fd1	0.13580252
163	0x3cedbc8e	0.029020574
164	0xbe93d7f2	-0.2887569
165	0xbe2f027f	-0.17090796
166	0xbee04739	-0.4380434
167	0x3d97256a	0.07380183
168	0xbf207cf3	-0.6269066
169	0xbd29ae10	-0.041425765
170	0xbd945b28	-0.07243949
171	0x3cea4840	0.028598905
172	0x3e3f620b	0.18689744
173	0x3df87f42	0.121336475
174	0xbde940bf	-0.113893025
175	0xbeaccb91	-0.3374906
176	0x3dfb3294	0.122655064
177	0x3d3b1f73	0.04568429
178	0x3e085bfa	0.13316336
179	0xbf198ef2	-0.5998374
180	0x3dca4de0	0.09878135
181	0xbc2ba5b9	-0.010476523
182	0xbd848e01	-0.064723976
183	0xbcaf6ac0	-0.021413207
184	0x3df9e5f2	0.12202062
185	0x3d6dbac5	0.058039445
186	0x3d03887e	0.03211259
187	0x3e038a5a	0.12845746
188	0xbde3a008	-0.11114508
189	0x3dd663a8	0.10468227
190	0xbc76c00c	-0.015060436
191	0xbefb5a19	-0.49092177
192	0x3dbe80ce	0.09301911
193	0x3c3a85b4	0.011384416
194	0x3d29f2e7	0.041491415
195	0x3e29e323	0.16590552
196	0x3d86712f	0.06564557
197	0xbe8789bf	-0.2647228
198	0x3da2a067	0.079407506
199	0xbe3907ba	-0.18069354
200	0xbe76a506	-0.24086389
201	0x3db59a04	0.08867267
202	0xbdc1698a	-0.09443958
203	0x3d948db7	0.072535925
204	0x3d981ca2	0.07427336
205	0x3e008944	0.12552363
206	0xbdf2c55f	-0.11854052
207	0x3e571d06	0.21007165
208	0x3e1c39d5	0.15256436
209	0xbe0349a7	-0.12821065
210	0x3e700e27	0.23442899
211	0x3e2eb30c	0.17060488
212	0xbd75010a	-0.059815444
213	0xbe916b85	-0.28402343
214	0xbe1994a8	-0.14998114
215	0xbd6bcbdc	-0.057567462
216	0x3d9c6a69	0.076374836
217	0x3e30aed9	0.17254199
218	0x3dda1a96	0.10649602
219	0x3de88b43	0.11354687
220	0x3d317b95	0.043330748
221	0xbe897529	-0.268472
222	0x3def042c	0.116707176
223	0x3e186b07	0.14884578
224	0x3e40a972	0.18814638
225	0xbc7a0544	-0.0152600445
226	0xbe550290	-0.20801759
227	0x3e05afce	0.13055345
228	0x3cbc8cd4	0.02301637
229	0x3ebfdcc9	0.37473133
230	0x3cd47a60	0.02593726
231	0x3c42eba6	0.011897003
232	0x3dd8cce7	0.10585957
233	0x3e22f2bb	0.15912907
234	0x3dde25fd	0.108470894
235	0x3db11b57	0.08647793
236	0x3d4c2db5	0.049848277
237	0x3da35a7e	0.079762444
238	0x3d102c17	0.035198297
239	0x3bc907b6	0.0061349524
240	0x3e16f2d7	0.14741074
241	0xbdb3395b	-0.08751174
242	0xbf23e4a1	-0.64020735
243	0x3cff74ea	0.031183679
244	0x3c93d8a4	0.018047638
245	0xbf20a7de	-0.62756145
246	0xbf09504b	-0.5363814
247	0xbeb23419	-0.34805372
248	0x3e505a01	0.20346834
249	0xbc38cbc0	-0.011279047
250	0x3e2e70f5	0.17035277
251	0x3d2db533	0.042409133
252	0x3df0af65	0.11752204
253	0x3e14bb45	0.14524563
254	0x3df875a7	0.121318154
255	0x3d7d9267	0.0619072

shared.1.bias f4 [128]
0	0x3d256290	0.0403772
1	0x3dd469e2	0.10371758
2	0x3df64d08	0.12026411
3	0x3d031ad3	0.032008003
4	0x3deee5bf	0.11664914
5	0x3dccf9ec	0.10008606
6	0x3bf790b6	0.0075550927
7	0x3e26e87f	0.16299628
8	0xbd2dd42b	-0.042438667
9	0xbdab5f46	-0.08367781
10	0x3d60c4dd	0.054875243
11	0x829fbf89	-2.3472886e-37
12	0xbd06c426	-0.032901905
13	0xbb8e7693	-0.0043476312
14	0x3dc24127	0.09485083
15	0x82a6f615	-2.4532752e-37
16	0xbae7ac11	-0.0017675181
17	0x3e2e3bcc	0.17014998
18	0x3d0bd22d	0.034135986
19	0xbde9c5f2	-0.11414708
20	0x3de632a7	0.1124013
21	0xbcfdf22c	-0.030999266
22	0x3c7436a1	0.014905603
23	0x82afe17f	-2.5843367e-37
24	0x3e1b770d	0.15182133
25	0xbd15506b	-0.036453646
26	0xbe0ae497	-0.13563763
27	0x3dcd4496	0.10022847
28	0x3be7f8e0	0.0070792288
29	0xbd8c5d4d	-0.06853733
30	0x82b68637	-2.6819532e-37
31	0xbbe4088e	-0.0069590276
32	0xbe3867b5	-0.18008311
33	0x82aad618	-2.5102139e-37
34	0xbde47d1e	-0.11156677
35	0xb8c352f0	-9.313773e-05
36	0x3b9680c3	0.0045929863
37	0x3d2885a1	0.041143063
38	0x3de79aef	0.11308848
39	0x3b06b8d1	0.0020556937
40	0x3cf5afc5	0.02999104
41	0xbdbff289	-0.09372432
42	0x82ba0de5	-2.7338219e-37
43	0xba5075d0	-0.0007952126
44	0xbd0f93d1	-0.035053078
45	0xade3fdc8	-2.5919614e-11
46	0xbd9c9a3a	-0.07646604
47	0x3b8a9f5b	0.0042304224
48	0xbc9b747c	-0.018976443
49	0x3c6fe5cc	0.01464219
50	0x3d16702d	0.036728073
51	0x3db6fd71	0.08935059
52	0xbd55781c	-0.0521165
53	0x3e18a096	0.14905009
54	0x3b87785c	0.004134221
55	0x3da119ea	0.07866271
56	0x3cc0f31e	0.023553427
57	0x3e039df9	0.1285323
58	0x3e2d4268	0.16919863
59	0x3e4187b9	0.1889943
60	0xbc28d22a	-0.010304013
61	0xbc72dc4b	-0.01482303
62	0x3d5f4361	0.054507617
63	0x3e14e51f	0.14540528
64	0x829d6b16	-2.313054e-37
65	0x3e0d3570	0.13789916
66	0x3de4d34c	0.11173114
67	0x3e0c37ab	0.1369311
68	0xbd9b9f6b	-0.07598766
69	0x399f8af4	0.0003043037
70	0x3e3457a6	0.1761156
71	0x3ce337f1	0.027736636
72	0x3e1d8627	0.15383206
73	0xbd66635f	-0.05624711
74	0x3d9aa5cb	0.07551154
75	0xbb7920a6	-0.0038013845
76	0x3e2f2fd3	0.17108087
77	0x3d87ebef	0.06636798
78	0x3cd18f0b	0.025580904
79	0x3de966c1	0.11396552
80	0xbda2ab71	-0.07942856
81	0xbde0193b	-0.10942312
82	0x3e026335	0.12733157
83	0x3de84ae3	0.113424085
84	0xbd53c57d	-0.05170201
85	0xbd7bd90a	-0.06148628
86	0x3d11ce83	0.035597336
87	0xbe3fbcf4	-0.18724424
88	0xbde736e4	-0.112897664
89	0x3d4d5ec4	0.050139204
90	0x3dd3ac28	0.103355706
91	0x3d64a584	0.05582191
92	0xbdb22067	-0.086975865
93	0x3d232c35	0.03983708
94	0xbda433e3	-0.08017709
95	0xbd323cc6	-0.04351499
96	0x82b926c2	-2.7205553e-37
97	0x3e769482	0.24080089
98	0x3daa7ec6	0.08324961
99	0x3e793653	0.2433713
100	0x3d14b9f3	0.036310147
101	0x3d4a8cd6	0.049450718
102	0xbc5fb313	-0.013653534
103	0x3d8231c7	0.063571505
104	0xbdc3ddf7	-0.09563821
105	0x82aa0a2b	-2.498509e-37
106	0x3bec4689	0.007210557
107	0x82a157c4	-2.3707199e-37
108	0x3dbec98f	0.09315788
109	0x3c9ed99b	0.019390872
110	0xbd93e148	-0.07220703
111	0x3d4f1e8c	0.05056624
112	0xbd7dcb3b	-0.061961394
113	0x3d32f3ca	0.043689527
114	0xbcaa3b41	-0.020780208
115	0x3d2cfd0f	0.042233523
116	0x3b42c3f8	0.0029718857
117	0xbc05e2b4	-0.008171726
118	0x82aeb861	-2.567283e-37
119	0x3996230e	0.00028636347
120	0x3daffc6f	0.0859307
121	0x3e76a9b7	0.24088179
122	0x3d9df2f5	0.07712356
123	0x3e08216f	0.13294004
124	0x3d43acc7	0.047772195
125	0x3dc812cc	0.0976921
126	0xbbef9400	-0.007311344
127	0x3e06b79d	0.1315598

q_heads.0.weight f4 [1, 128]
0	0x3dfa7ac9	0.12230451
1	0x3e0a6fec	0.13519257
2	0x3e050f74	0.12994176
3	0xc01840fb	-2.378966
4	0xbcc2a1b4	-0.023758747
5	0x3ddf239a	0.10895462
6	0xbf8f61ff	-1.1201781
7	0x3cbb9bef	0.022901503
8	0xbc8f313d	-0.017479533
9	0xbf927b8f	-1.1443957
10	0xbed51860	-0.4162016
11	0x82aeb438	-2.5670443e-37
12	0xbfa0eddc	-1.2572589
13	0xbf123842	-0.5711709
14	0x3d896db7	0.067103796
15	0x82a0aedb	-2.361025e-37
16	0x3d061057	0.032730427
17	0x3d8c55e1	0.068523176
18	0x3d1cf5b1	0.038320247
19	0xbf56c399	-0.8389221
20	0x3dbd199c	0.092334
21	0xbebd3dd5	-0.36961237
22	0x3ddf84eb	0.10914024
23	0x02c755fa	2.928977e-37
24	0x3f372163	0.7153532
25	0xc0005d2a	-2.0056863
26	0xbfa9fccc	-1.3280272
27	0x3d23cb43	0.039988767
28	0x3f5d0a64	0.8634398
29	0xbf7fffc8	-0.99999666
30	0x82ae53fa	-2.5615202e-37
31	0x3eee84bd	0.46585646
32	0x3f32e7c6	0.6988491
33	0x82ca6cb5	-2.9743627e-37
34	0xbfd4591f	-1.6589698
35	0xbc02f74c	-0.0079935305
36	0x3f827df8	1.0194693
37	0x3d7219cf	0.059106644
38	0x3da2c9c9	0.07948644
39	0xbf9b1a0d	-1.2117325
40	0x3d600fdb	0.05470262
41	0x3f1e5b9c	0.61858535
42	0x02abd7a4	2.5249963e-37
43	0xbc029b64	-0.007971618
44	0xbfb3c27b	-1.4043726
45	0xba332921	-0.0006834437
46	0x3f266d7e	0.6501082
47	0x3d8fa1a8	0.07013255
48	0xbf8fe33c	-1.1241221
49	0x3d979b01	0.074026115
50	0xbf9766d8	-1.182826
51	0xbf662a9c	-0.89908767
52	0xbfb23a8d	-1.3924118
53	0x3e363934	0.17795259
54	0xbf820c07	-1.015992
55	0x3d8f4c8e	0.069970235
56	0xbef337c8	-0.47503495
57	0x3de05a68	0.109547436
58	0x3e45e8fd	0.19327159
59	0x3d7ca9d2	0.06168539
60	0x3f8db57a	1.1071007
61	0x3d354563	0.044255625
62	0x3f6ba0c8	0.9204221
63	0xbcf27221	-0.029595437
64	0x02aad29f	2.5100146e-37
65	0x3da180bc	0.07885882
66	0x3d82120e	0.063511
67	0x3db1f534	0.08689347
68	0xbeaac118	-0.33350444
69	0xbcb40dec	-0.021979295
70	0x3eca2f1b	0.39489064
71	0xbf0529be	-0.5201682
72	0x3e679b07	0.22617732
73	0xbf8dbbb6	-1.107291
74	0x3dfeb610	0.124370694
75	0xb981aa46	-0.0002473166
76	0x3e53b85b	0.20675795
77	0x3d37a2a9	0.04483286
78	0xbd18abdc	-0.037273273
79	0x3e1b9103	0.15192036
80	0xbf880855	-1.0627543
81	0x3f8af683	1.085648
82	0x3d917fbf	0.07104444
83	0x3d835d61	0.06414295
84	0xbf1b1cd9	-0.60590893
85	0xbf9d1ff8	-1.2275381
86	0x3de5b51c	0.112161845
87	0x3f03970c	0.51402354
88	0xc0016c20	-2.0222244
89	0x3cb62ade	0.022237238
90	0x3d872beb	0.066001736
91	0xbd08b452	-0.03337509
92	0x3f87ac77	1.0599507
93	0xbfa44bed	-1.2835671
94	0xbf4e4aaa	-0.8058268
95	0xbf314abb	-0.69254655
96	0x02aa4096	2.5016325e-37
97	0x3e0ffcc1	0.14061262
98	0x3e5cdcfd	0.21568675
99	0x3e077fcc	0.13232344
100	0xbf578af2	-0.8419639
101	0xbd53237d	-0.051547516
102	0xbf5acb3c	-0.8546636
103	0x3d2c5478	0.042072743
104	0xbf9f0d11	-1.2425863
105	0x02af6679	2.5772755e-37
106	0xbf0727fa	-0.52795374
107	0x02accba0	2.5390004e-37
108	0x3e19858e	0.14992353
109	0xbc40f851	-0.011777953
110	0xbfc916cc	-1.5710082
111	0x3de0092c	0.109392494
112	0xbfb93e5d	-1.4472157
113	0xbccadec9	-0.024764435
114	0xbf63a10c	-0.88917613
115	0x3dfefd00	0.124506
116	0xbf5415be	-0.82845676
117	0x3deaf4ac	0.11472449
118	0x82b08f2d	-2.5943055e-37
119	0xbfb75160	-1.4321709
120	0x3ddae3a6	0.10687952
121	0x3e3174a0	0.17329645
122	0x3e08ba88	0.13352406
123	0x3e4185b3	0.18898658
124	0x3dda9202	0.1067238
125	0x3e2e0b74	0.16996557
126	0xbfab4c53	-1.3382667
127	0x3d90ecb2	0.07076396

q_heads.1.weight f4 [1, 128]
0	0x3e38b0d3	0.18036203
1	0x3d363a3a	0.044489123
2	0x3e0ebf22	0.13940099
3	0xc016df7b	-2.3573902
4	0x3d3418ff	0.04396915
5	0x3dc99077	0.098420076
6	0xbf8fd0f8	-1.1235647
7	0x3e15ae0f	0.1461718
8	0xbc8e372d	-0.017360294
9	0xbf8d8cdc	-1.1058612
10	0xbed1078a	-0.40826064
11	0x82babd9e	-2.7439079e-37
12	0xbfa11388	-1.2584085
13	0xbf1b5b66	-0.6068634
14	0x3e02c07a	0.12768736
15	0x82b07479	-2.5927728e-37
16	0x3de75ec3	0.11297371
17	0x3e2fd116	0.17169604
18	0xbc8b2d73	-0.016989445
19	0xbf542cf6	-0.82881105
20	0x3d92357f	0.0713911
21	0xbed43998	-0.4145019
22	0x3d6ea59f	0.058263417
23	0x02b434cf	2.6478934e-37
24	0x3f39f205	0.7263492
25	0xc001a662	-2.0257802
26	0xbfa860e5	-1.315457
27	0x3de0c879	0.10975737
28	0x3f640b43	0.89079684
29	0xbf6848d4	-0.90736127
30	0x82bfd1f2	-2.818543e-37
31	0x3ef14df6	0.47129792
32	0x3f32ea69	0.6988893
33	0x82b704f3	-2.6892274e-37
34	0xbfd0fd30	-1.6327267
35	0xbbfa8013	-0.007644662
36	0x3f7934a6	0.9734596
37	0x3bd6ed0d	0.0065590204
38	0x3d296ee0	0.041365504
39	0xbf9f43b6	-1.2442539
40	0xbc92181e	-0.017833766
41	0x3f1ce958	0.61293554
42	0x02aa2032	2.4997734e-37
43	0xbc073a32	-0.008253621
44	0xbfb6bf77	-1.427718
45	0xb9dc03d9	-0.00041964537
46	0x3f1ac34a	0.6045424
47	0xbc4f2ef6	-0.012645474
48	0xbf9159b0	-1.1355495
49	0xbc2f5f27	-0.010703838
50	0xbf91e76b	-1.1398748
51	0xbf5f80af	-0.8730573
52	0xbfad0a6f	-1.3518809
53	0x3e02457d	0.1272182
54	0xbf8084a7	-1.0040482
55	0x3d8b1197	0.06790464
56	0xbefa61c7	-0.48902723
57	0x3db45b72	0.08806504
58	0x3e3e2d4f	0.18571971
59	0x3e0a02e2	0.13477662
60	0x3f8f1e84	1.1181188
61	0xbd2f1881	-0.042747978
62	0x3f6d7b49	0.92766243
63	0x3df4b4f8	0.119485795
64	0x02a3fe2a	2.409658e-37
65	0x3dae11b9	0.08499474
66	0x3dd7a92a	0.10530312
67	0x3e156890	0.14590669
68	0xbeaece7d	-0.34141913
69	0xbd14dd68	-0.036343962
70	0x3ec6ff21	0.38866523
71	0xbf063d9d	-0.52437764
72	0x3e1d76fb	0.15377419
73	0xbf8e03ec	-1.1094947
74	0x3e07f045	0.1327525
75	0x3a8273ac	0.0009952686
76	0x3dba95f6	0.09110634
77	0xbdd2d51d	-0.102945544
78	0xbc3e4c0d	-0.011614812
79	0x3dcf4aa1	0.10121656
80	0xbf8f81da	-1.1211503
81	0x3f8faf4a	1.1225369
82	0x3da372a5	0.07980851
83	0x3d44c176	0.04803606
84	0xbf31a022	-0.6938497
85	0xbf9dc985	-1.2327124
86	0x3d52d116	0.05146893
87	0x3f194d54	0.5988362
88	0xbffd249a	-1.9776795
89	0x3d6db313	0.058032107
90	0x3d9d212f	0.07672345
91	0x3d8a7e16	0.0676233
92	0x3f87eeec	1.0619788
93	0xbf9e4d2f	-1.2367305
94	0xbf55007c	-0.83203864
95	0xbf2f9f89	-0.68602806
96	0x82be3623	-2.7949064e-37
97	0x3e32182e	0.17392036
98	0x3e29f90e	0.16598913
99	0x3e36ba75	0.17844565
100	0xbf4d14b9	-0.80109745
101	0x3d1ef659	0.038809154
102	0xbf5f6829	-0.8726831
103	0x3dca2471	0.09870232
104	0xbfa95ff0	-1.3232403
105	0x02b4b5be	2.6552938e-37
106	0xbeef1826	-0.4669811
107	0x02a8ccba	2.4802889e-37
108	0x3dc291e0	0.0950048
109	0xbc4bb434	-0.0124331005
110	0xbfcac0e4	-1.5840116
111	0xbcba785f	-0.022762476
112	0xbfbc48b2	-1.4709685
113	0x3dbb19a9	0.09135754
114	0xbf608c38	-0.87713957
115	0x3e078fd8	0.13238466
116	0xbf56796f	-0.8377904
117	0x3dc1e205	0.09466938
118	0x82b82452	-2.7057217e-37
119	0xbfb21408	-1.3912363
120	0x3dc880c7	0.09790187
121	0x3d9d557c	0.076823205
122	0x3df44884	0.11927894
123	0x3e1431d7	0.14472137
124	0x3dc95e6f	0.09832465
125	0x3e3e8e94	0.18609077
126	0xbfa99503	-1.32486
127	0x3d6869a7	0.056741383

q_heads.2.weight f4 [1, 128]
0	0x3ddb16dc	0.106977195
1	0x3db2b547	0.08725982
2	0x3e2e5b9d	0.17027135
3	0xc0170990	-2.3599586
4	0x3c7b7416	0.015347501
5	0x3e171724	0.14754921
6	0xbf94faa7	-1.1638993
7	0x3e2582f7	0.1616324
8	0xbc5a9413	-0.013340968
9	0xbf8b5650	-1.0885715
10	0xbecd30e1	-0.40076354
11	0x82a9a3cd	-2.4926335e-37
12	0xbf9a3e96	-1.205035
13	0xbf042184	-0.5161364
14	0x3e2c2d90	0.16814256
15	0x82b25585	-2.6203835e-37
16	0x3e204927	0.15652905
17	0x3e20efba	0.15716448
18	0xbc9b817e	-0.018982645
19	0xbf5b7574	-0.85726094
20	0x3d256246	0.040376924
21	0xbed628b6	-0.41827935
22	0x3e29d6d5	0.16585858
23	0x02c58c9a	2.902725e-37
24	0x3f330483	0.6992876
25	0xc00394cf	-2.0559576
26	0xbfa75776	-1.3073566
27	0x3d8e6a68	0.06953889
28	0x3f608192	0.8769771
29	0xbf7b3981	-0.9813462
30	0x82b73dd3	-2.6924919e-37
31	0x3f008626	0.50204694
32	0x3f2c026d	0.671912
33	0x82c8d492	-2.9509368e-37
34	0xbfd259f6	-1.6433704
35	0xbbf60600	-0.0075080395
36	0x3f768e41	0.9631081
37	0x3e08f2c6	0.1337386
38	0x3d934de9	0.071925946
39	0xbf934b19	-1.1507293
40	0xbc18156a	-0.009282449
41	0x3f1b4ab3	0.60660857
42	0x02ac9ae6	2.5362036e-37
43	0xbc0a307c	-0.008434411
44	0xbfb72b35	-1.4310061
45	0xba894694	-0.0010473304
46	0x3f281426	0.65655744
47	0x3cb9b5df	0.02266973
48	0xbf84873d	-1.0353771
49	0xbb71caff	-0.0036894677
50	0xbf9cf9eb	-1.2263769
51	0xbf627433	-0.88458556
52	0xbfad68a6	-1.3547561
53	0x3d6bcaa5	0.057566304
54	0xbf8ab8e4	-1.0837674
55	0x3e0b6840	0.13613987
56	0xbefdd179	-0.49573877
57	0x3e1727d8	0.14761293
58	0x3e541b3a	0.20713511
59	0x3e1f7855	0.15573247
60	0x3f91945b	1.13734
61	0xbba22bd8	-0.0049490742
62	0x3f682017	0.90673965
63	0x3da2ebf4	0.07955161
64	0x02c93a03	2.9567593e-37
65	0x3ddedea9	0.10882313
66	0x3d08d2d1	0.033404175
67	0x3d45a200	0.0482502
68	0xbeb507ce	-0.35357517
69	0x3d4f117c	0.050553784
70	0x3eb3965a	0.35075647
71	0xbf1dd207	-0.616486
72	0x3e406c7d	0.18791385
73	0xbf97706b	-1.1831182
74	0x3da99583	0.0828047
75	0x38e09728	0.000107093074
76	0x3dcecf98	0.10098189
77	0x3d442b02	0.047892578
78	0x3d50816b	0.050904673
79	0x3dc5f066	0.09664993
80	0xbf90cc73	-1.1312393
81	0x3f8f50f1	1.1196576
82	0x3de4cdc8	0.11172062
83	0xbcff40aa	-0.031158764
84	0xbf255102	-0.64576733
85	0xbf97e8bf	-1.1867903
86	0x3cd506a5	0.026004145
87	0x3eee58d7	0.46552154
88	0xc0029799	-2.0405028
89	0x3e0669e2	0.13126329
90	0x3d517f26	0.05114665
91	0x3e01658f	0.12636398
92	0x3f861650	1.0475559
93	0xbf9f185e	-1.2429311
94	0xbf394c4b	-0.7238204
95	0xbf419bb4	-0.7562821
96	0x02c0c66f	2.832576e-37
97	0x3e17811e	0.14795348
98	0x3e3d75b3	0.1850193
99	0x3e287d26	0.1645399
100	0xbf491a42	-0.7855569
101	0xbc4717bf	-0.012151658
102	0xbf62c460	-0.88580894
103	0xbb0d4d9d	-0.0021561154
104	0xbf9eb676	-1.2399433
105	0x02aea077	2.5659104e-37
106	0xbf007c0e	-0.5018929
107	0x029bae70	2.2875325e-37
108	0x3e020e2a	0.12700716
109	0x3cc3666f	0.023852555
110	0xbfca1267	-1.5786866
111	0x3e165a5a	0.14682904
112	0xbfbed4e6	-1.4908721
113	0x3d4e7e49	0.050413404
114	0xbf645d7c	-0.89205146
115	0x3abbb6fb	0.00143215
116	0xbf51bd50	-0.8192949
117	0x3c22d624	0.00993875
118	0x82a9383e	-2.48646e-37
119	0xbfb48c10	-1.4105244
120	0x3e0e4555	0.13893636
121	0x3df3fa7c	0.119130105
122	0x3c655216	0.013996622
123	0x3e0cb775	0.13741858
124	0x3d716301	0.058932308
125	0x3dac955b	0.08426925
126	0xbfaeb2ed	-1.3648354
127	0x3ddddd3c	0.10833213

q_heads.3.weight f4 [1, 128]
0	0x3a46d8ee	0.00075854256
1	0xbca6e96f	-0.020374982
2	0x3c0ea3f6	0.0087060835
3	0x3a010f7a	0.00049232657
4	0xbc0a26c5	-0.008432095
5	0x3cb5cd07	0.022192491
6	0xba6b6243	-0.0008979181
7	0xbd397cc1	-0.04528499
8	0xbbc82393	-0.0061077564
9	0x3a7b4604	0.0009585323
10	0x3a80faeb	0.0009840404
11	0x030ccee9	4.1379823e-37
12	0x3ab80247	0.0014038765
13	0x3be311a7	0.0069295946
14	0x3c582788	0.013193019
15	0x82369de7	-1.3416564e-37
16	0xbba2d9e2	-0.0049698213
17	0x3d006f40	0.031356096
18	0x3b92ac32	0.0044760937
19	0x3af2f8a7	0.0018537239
20	0x3c18e7ef	0.009332641
21	0xbc38e498	-0.01128497
22	0x3c357b4e	0.011076761
23	0x82ba0cd2	-2.7337602e-37
24	0xbb08c8ae	-0.0020871568
25	0xbb85790c	-0.004073268
26	0x3c0b78cb	0.008512686
27	0xbcb275e3	-0.021784728
28	0xb88f15e1	-6.8228466e-05
29	0xbbecada5	-0.0072228485
30	0x82b4abbe	-2.6547198e-37
31	0xb9f5ffde	-0.00046920677
32	0xbba7b853	-0.0051184087
33	0x02bfaf66	2.8165601e-37
34	0x3b16a861	0.0022988545
35	0xb5812639	-9.622373e-07
36	0xbbb377a7	-0.00547691
37	0xbbaf3a76	-0.0053475453
38	0xbc5d22bf	-0.013497054
39	0x3b4f8f90	0.0031671263
40	0x3be6812a	0.0070344405
41	0xbbdef517	-0.0068041193
42	0x02b155a8	2.6056977e-37
43	0x13f08eea	6.072544e-27
44	0x3b2e0912	0.00265557
45	0x02b44125	2.6486014e-37
46	0xbaff4610	-0.0019475836
47	0x3c4754cb	0.012166212
48	0x3b359d8f	0.002771232
49	0xbcd2f2be	-0.025750514
50	0xbc491648	-0.012273379
51	0x3bd2a812	0.006428727
52	0x3c08b970	0.008344993
53	0x3b9a28d0	0.0047045723
54	0x3c011e40	0.007880747
55	0x3a83af6d	0.0010046788
56	0x3b982134	0.00464263
57	0xbbcac825	-0.00618841
58	0xbb5bfdb2	-0.0033567962
59	0x3cf05d99	0.029341506
60	0xba9847c8	-0.0011618072
61	0xbb1301c6	-0.0022431477
62	0x3bb6af8d	0.0055751265
63	0xbd45878a	-0.048224963
64	0x82908830	-2.1237066e-37
65	0x3cb44f32	0.02201042
66	0x3bca0a75	0.0061657974
67	0xbb89be19	-0.0042035696
68	0xbaba4bc0	-0.0014213249
69	0xb9168d72	-0.00014357807
70	0xbc5ed6a9	-0.013600984
71	0xbbc2c856	-0.005944292
72	0x3cf2d29e	0.029641446
73	0x3bd4a7d4	0.0064897332
74	0x3c5cf0a1	0.013485105
75	0x35a850ac	1.2540454e-06
76	0xbd0caa81	-0.034342293
77	0x3c108b28	0.00882224
78	0xbc1ccbac	-0.0095700435
79	0xbcad9c0c	-0.021192573
80	0x3b4e1dfa	0.0031450973
81	0x3c35113d	0.011051473
82	0xbc8d1502	-0.017221931
83	0x3c3db5c0	0.011578977
84	0x3a89683c	0.0010483335
85	0xbc2cf3c2	-0.010556163
86	0x3c930125	0.017944882
87	0x3c81ce42	0.015845422
88	0x3bf76e7a	0.0075510116
89	0x3b8637f2	0.0040960247
90	0x3b8edc95	0.0043597915
91	0x3b401a26	0.002931246
92	0x3b8b6fac	0.0042552557
93	0xbb7c3f84	-0.0038490007
94	0x3b1e768a	0.0024179542
95	0x3afc9465	0.0019270299
96	0x823ba951	-1.3787182e-37
97	0xbbc58025	-0.006027239
98	0xbcac587b	-0.021038285
99	0xbca963d3	-0.020677483
100	0x3b9089a4	0.0044109393
101	0x3a9e8b54	0.0012095966
102	0x3c10d9a4	0.008840952
103	0x3c33dd7b	0.010978098
104	0xbacd8697	-0.001568037
105	0x82d82bbb	-3.1763448e-37
106	0xbad0d529	-0.0015932667
107	0x832766d7	-4.9194943e-37
108	0xbcaf5d3f	-0.021406768
109	0x3a3693c7	0.00069647696
110	0x3b623e07	0.0034521834
111	0xbbe0811a	-0.0068513276
112	0xbbaf3924	-0.005347388
113	0xbc65a554	-0.014016468
114	0x39e1f462	0.00043097424
115	0xb75ac187	-1.3038872e-05
116	0xbb9f1b64	-0.00485556
117	0x3c3fdd0f	0.011710419
118	0x82c75bb8	-2.9293066e-37
119	0xbb8ba7c3	-0.004261942
120	0xba12f1de	-0.0005605499
121	0x3cef8eb0	0.029242843
122	0x3d0e67b5	0.03476687
123	0xbb1af2ca	-0.0023643249
124	0x3c8bfcb4	0.017088272
125	0x3d05ff9a	0.032714464
126	0xba76c7dc	-0.00094139366
127	0xbc90b329	-0.017663555
