ultra_world_model.pt (torch, 24812 bytes, 6 tensors)

net.0.weight f4 [64, 10]
0	0xbe368267	-0.17823182
1	0xbe60fbc8	-0.21971047
2	0x3e915d75	0.28391615
3	0x3d713d62	0.05889643
4	0xbdf0e87a	-0.117630914
5	0x3e73eecc	0.23821563
6	0x3beb03f6	0.007172103
7	0x3e3edf70	0.18639922
8	0x3e2e9676	0.17049584
9	0xbea020d8	-0.31275058
10	0x3e392bd9	0.18083133
11	0xbdaa2ef7	-0.08309739
12	0xbe51c9f8	-0.20487201
13	0xbe844c2b	-0.25839362
14	0x3e187e91	0.14892031
15	0x3cdf5698	0.02726297
16	0xbd2c5d72	-0.042081304
17	0xbea204f9	-0.3164442
18	0xbd5a4bba	-0.053294875
19	0xbd8c6a72	-0.0685624
20	0xbdd4c33a	-0.10388799
21	0xbd9b2cdf	-0.07576918
22	0xbd8eaf71	-0.069670565
23	0x3be23d75	0.006904299
24	0x3e9b79d2	0.3036638
25	0xbd3317d1	-0.043723885
26	0xbdbe0446	-0.09278159
27	0xbe9dbba9	-0.30807236
28	0x3e9c6122	0.30542856
29	0x3e95d868	0.29266667
30	0x3e291d7d	0.16515155
31	0xbd95c191	-0.073123105
32	0x3d6c4f7c	0.05769299
33	0x3e769672	0.24080828
34	0xbe3d0456	-0.18458685
35	0xbda35aba	-0.07976289
36	0xbd88187e	-0.066452965
37	0xbe3f367d	-0.1867313
38	0x3e5f13c2	0.21784881
39	0xbb154580	-0.002277702
40	0xbe2bba6d	-0.16770335
41	0x3dfd238c	0.12360296
42	0x3d38c95c	0.045113906
43	0x3dab0bea	0.08351882
44	0xbd81ec39	-0.06343884
45	0x3e3d3fa0	0.18481302
46	0xbe824fa6	-0.25451392
47	0x3e7229b7	0.23648725
48	0x3e881fb0	0.26586676
49	0xbd8d789c	-0.0690777
50	0x3e857e19	0.26072767
51	0xbd7378e9	-0.05944148
52	0x3dc5c2d5	0.09656302
53	0x3e590478	0.21193111
54	0x3e85f08a	0.2616008
55	0x3e5d26fc	0.21596903
56	0x3cf80464	0.030275531
57	0xbe8748c8	-0.26422715
58	0xbcbf4a31	-0.023350807
59	0xbe2f4b1e	-0.17118499
60	0xbe4fd1af	-0.20294832
61	0x3dd598b6	0.10429518
62	0xbe689bb4	-0.22715646
63	0x3e8e7211	0.278214
64	0xbe80d71f	-0.25164124
65	0x3d4beffa	0.049789406
66	0xbe82c6c7	-0.2554228
67	0xbe99d65a	-0.3004635
68	0xbe072ab1	-0.13199879
69	0xbe1f8c10	-0.15580773
70	0x3c5b694a	0.013391802
71	0x3e02e878	0.12783992
72	0x3e6c2878	0.23062313
73	0x3e8bf8f4	0.27338374
74	0xbe7e7d18	-0.24852407
75	0x3e5ed155	0.21759541
76	0x3e207d2f	0.15672754
77	0xbe89ab4d	-0.26888505
78	0x3de5fb2e	0.11229549
79	0xbe3647e7	-0.17800866
80	0x3e92788e	0.286076
81	0x3e2ca2da	0.16858998
82	0xbce38543	-0.027773505
83	0x3c9c4dd2	0.019080076
84	0x3e1a5e2d	0.15074988
85	0xbe2ce9c7	-0.16886054
86	0xbe88ae5c	-0.26695526
87	0x3da617f1	0.08110035
88	0xbe4c1305	-0.1992913
89	0xbe0641c9	-0.13111033
90	0x3e41532c	0.18879384
91	0x3ea0ad12	0.31382042
92	0xbe90bb05	-0.28267685
93	0x3e875f18	0.26439738
94	0xbe9fb607	-0.31193563
95	0x3e924e30	0.28575277
96	0xbe774523	-0.24147467
97	0x3e38d160	0.1804862
98	0xbe24fe36	-0.16112599
99	0xbdad1144	-0.08450559
100	0xbe88c5c6	-0.2671339
101	0x3e3d6842	0.18496802
102	0x3dd77b6a	0.10521586
103	0x3e38ea4a	0.18058124
104	0xbe8de4e3	-0.2771369
105	0x3e4bc9d7	0.19901215
106	0x3e291bc2	0.16514495
107	0x3e1d2f56	0.15350088
108	0xbd893bd7	-0.06700867
109	0xbe825e48	-0.25462556
110	0x3d937ea1	0.07201887
111	0x3e83031b	0.25588307
112	0x3d0b490a	0.034005202
113	0x3e7cbdf2	0.24681833
114	0xbbefc0eb	-0.007316699
115	0x3e88fad5	0.2675387
116	0x3e7752b8	0.24152648
117	0x3a809ff8	0.0009813299
118	0x3e8585b6	0.26078576
119	0xbdcdd259	-0.10049886
120	0x3d87e047	0.066345744
121	0x3e8758b0	0.2643485
122	0xbe6e0d07	-0.23247157
123	0xbd976704	-0.073926955
124	0x3decb091	0.11557115
125	0x3e174e4f	0.14775966
126	0xbc32ee49	-0.010921069
127	0xbd0513b8	-0.03248951
128	0xbe24d7f2	-0.16098002
129	0x3e11cfca	0.14239421
130	0x3de0f175	0.10983554
131	0xbe0e100b	-0.13873307
132	0x3e827939	0.2548311
133	0x3e7d3613	0.24727659
134	0xbe1311e8	-0.143623
135	0x3dc10015	0.09423844
136	0x3db09f93	0.08624186
137	0x3c01e1ac	0.0079273395
138	0x3e7e84da	0.24855366
139	0xbcf7b597	-0.030237956
140	0x3cfbf92a	0.03075846
141	0x3e401f17	0.1876186
142	0xbe8f940b	-0.28042635
143	0x3e8eed6b	0.2791551
144	0xbe1717d3	-0.14755182
145	0xbe3044f4	-0.17213804
146	0xbe8a86ec	-0.27056062
147	0xbdb3620b	-0.087589346
148	0x3e9b4f9b	0.30334172
149	0xbd2afd51	-0.041745488
150	0xbe30d538	-0.17268836
151	0xbd949874	-0.072556406
152	0x3c48d7e0	0.0122585
153	0x3de3a44a	0.1111532
154	0x3e69c2f8	0.22828281
155	0xbd13fa73	-0.03612752
156	0x3e9dbc8f	0.3080792
157	0x3e8cf095	0.275273
158	0xbe07cf35	-0.13262637
159	0xbe52ccce	-0.2058594
160	0x3db54c6c	0.08852467
161	0x3d56003e	0.052246325
162	0x3d5100c2	0.051026113
163	0x3d77195c	0.06032692
164	0x3e09fa7b	0.13474457
165	0x3e01233e	0.126111
166	0x3cf764f3	0.030199504
167	0xbea02d50	-0.3128457
168	0xbe62384c	-0.22091788
169	0xbe39e1c6	-0.18152532
170	0x3d211ab4	0.039332107
171	0x3e50b53f	0.2038164
172	0x3e506272	0.20350054
173	0x3e103c42	0.14085487
174	0xbdeac895	-0.11464039
175	0xbdf7bbd3	-0.120963715
176	0x3e87cd71	0.26523927
177	0xbd709c53	-0.058742832
178	0x3e4513df	0.19245861
179	0xbd3ea174	-0.046540692
180	0x3af2f2bf	0.0018535479
181	0xbe543a73	-0.20725422
182	0xbe36566c	-0.17806405
183	0x3e92120b	0.2852939
184	0xbe8a77a8	-0.27044415
185	0xbe4192f8	-0.1890372
186	0x3df57bb0	0.11986482
187	0xbe7acff3	-0.24493389
188	0xbea03e41	-0.31297496
189	0xbe889a86	-0.26680392
190	0xbea0dd74	-0.31418955
191	0xbe678b74	-0.22611791
192	0x3dbc51e2	0.091953054
193	0xbda599aa	-0.0808595
194	0xbd2948b5	-0.041329104
195	0x3c8dd245	0.017312178
196	0xbe9a6e6b	-0.30162367
197	0x3dd0188b	0.10160931
198	0xbd36ea07	-0.04465678
199	0x3ea0aa5a	0.31379968
200	0xbe071cbe	-0.13194558
201	0xbe93513f	-0.28772923
202	0x3e65b325	0.2243162
203	0x3e1b5518	0.1516918
204	0x3e932c60	0.28744793
205	0xbe6c8829	-0.23098816
206	0xbe8a630b	-0.2702869
207	0x3d172f75	0.036910493
208	0x3e081b8d	0.1329176
209	0x3e7d0f3a	0.2471284
210	0xbe5703ab	-0.20997493
211	0x3d4cfed5	0.050047714
212	0x3e64d1da	0.22345677
213	0x3e34335c	0.17597717
214	0xbe23ee87	-0.1600896
215	0xbdae7d97	-0.08520048
216	0xbe99fc35	-0.3007523
217	0xbdc49f60	-0.09600711
218	0x3e19a9d2	0.15006188
219	0x3e786d56	0.24260458
220	0xbdd8a6ea	-0.10578711
221	0x3e3d3e70	0.1848085
222	0xbda7ec3f	-0.08199357
223	0x3d653a00	0.055963516
224	0x3df40604	0.1191521
225	0x3e51e373	0.20496921
226	0x3ceceac8	0.028920546
227	0x3d850f8a	0.064971045
228	0x3e27abb5	0.16374095
229	0x3e8f75fc	0.28019702
230	0xbd9b1233	-0.075718306
231	0x3e10545b	0.14094679
232	0x3e5bf382	0.2147961
233	0xbe13d621	-0.14437152
234	0x3d3a630b	0.04550461
235	0xbe0729db	-0.1319956
236	0x3d0bba83	0.03411342
237	0x3dfde139	0.123964734
238	0x3e8517aa	0.25994617
239	0xbe3f2e23	-0.18669944
240	0x3e042b3f	0.12907122
241	0x3c5642e8	0.013077475
242	0xbe2355f7	-0.15950762
243	0xbd0154c7	-0.03157499
244	0xbd16a7a2	-0.03678096
245	0x3e6eb916	0.23312792
246	0x3db3f95e	0.087877974
247	0xbdcca6da	-0.09992762
248	0xbe9e4023	-0.30908307
249	0x3e8a0d8f	0.2696347
250	0xbcf85e86	-0.03031851
251	0xbe3de928	-0.18545973
252	0xbe9c6575	-0.30546156
253	0x3e994d99	0.29942015
254	0x3e6a4982	0.22879604
255	0x3e99f4f0	0.30069685

net.0.bias f4 [64]
0	0x3d7323e6	0.059360407
1	0x3d18c6bb	0.0372989
2	0x3e7e7785	0.2485028
3	0x3e1b8331	0.15186764
4	0xbe89c16d	-0.26905385
5	0xbd767ff4	-0.06018062
6	0xbe6651d1	-0.22492148
7	0xbe474f4b	-0.19463842
8	0x3d89e7ff	0.06733703
9	0xbdd38cb0	-0.103295684
10	0xbd83e389	-0.06439883
11	0xbe619306	-0.22028741
12	0xbe19545e	-0.1497359
13	0xbe96f4f1	-0.2948375
14	0xbe3a5618	-0.18196905
15	0x3e0eb99d	0.13937993
16	0xbdb12ff7	-0.08651727
17	0xbd217b4e	-0.039424233
18	0x3d6cc64f	0.05780631
19	0x3e8a386f	0.2699618
20	0xbdc015dd	-0.0937917
21	0xbd18d87a	-0.037315823
22	0xbe3950ab	-0.18097179
23	0x3df8c309	0.12146575
24	0xbe094535	-0.13405307
25	0xbe11adc0	-0.14226437
26	0xbe978535	-0.29593816
27	0xbd7430ef	-0.05961698
28	0x3e933c61	0.28757003
29	0x3e22127f	0.15827368
30	0x3de463dc	0.11151859
31	0x3e7f45b8	0.2492894
32	0xbda5957d	-0.08085153
33	0xbe596ce4	-0.21232945
34	0x3e9e7b87	0.3095362
35	0xbe978756	-0.2959544
36	0xbe713e24	-0.23558861
37	0x3db60c3e	0.08889054
38	0x3e9964d1	0.2995973
39	0xbc6c3a29	-0.014418163
40	0x3e753ff5	0.23950179
41	0x3ce61d65	0.028090188
42	0xbe2ce9d7	-0.16886078
43	0xbd61268a	-0.054968394
44	0x3d4f086b	0.050545137
45	0x3e9281e3	0.2861472
46	0xbe13a9b4	-0.14420205
47	0x3dc0f68d	0.09422026
48	0x3d06c610	0.03290373
49	0xbe95a7ec	-0.29229677
50	0x3e41d2af	0.18928026
51	0x3e2b8704	0.16750723
52	0x3e9141cf	0.2837052
53	0xbc2ae57b	-0.010430689
54	0x3e92a938	0.2864473
55	0x3e250dda	0.16118565
56	0xbc8dd232	-0.017312143
57	0x3c9942ee	0.018708672
58	0xbe1f4e8a	-0.15557304
59	0x3b9d7071	0.004804664
60	0x3e36126f	0.1778047
61	0x3e7dbfe8	0.24780238
62	0x3d1e9d93	0.038724493
63	0xbddef4ba	-0.10886522

net.2.weight f4 [64, 64]
0	0xbbfe7a4c	-0.007766044
1	0xbdc41f91	-0.09576333
2	0x3c0e5d33	0.008689213
3	0x3dada2e2	0.08478333
4	0xbd282f49	-0.04106072
5	0xbd4bddb1	-0.04977197
6	0xbc9bea75	-0.019032696
7	0xbd969abf	-0.07353734
8	0x3d585888	0.052818805
9	0x3c1760b6	0.009239366
10	0xbccce7a3	-0.025012797
11	0x3d16631c	0.03671561
12	0xbdb93f4f	-0.09045278
13	0x3d47f7f2	0.048820443
14	0xbd5084c3	-0.05090786
15	0x3cf0c5d0	0.0293912
16	0xbd949bea	-0.07256301
17	0xbb35c600	-0.0027736425
18	0xbda031f4	-0.07822028
19	0x3dabebee	0.083946094
20	0x3d29946f	0.041401323
21	0xbd832e8e	-0.06405364
22	0xbd9eb4c8	-0.07749325
23	0xbd8a1b48	-0.06743485
24	0x3d3eb662	0.046560653
25	0x3c926b3b	0.017873397
26	0xbddef3aa	-0.10886319
27	0x3d508625	0.05090918
28	0xbd4a340c	-0.049366042
29	0x3db06793	0.08613505
30	0xbcb6884c	-0.022281788
31	0xbd162a2a	-0.036661305
32	0xbc301ac4	-0.010748569
33	0xbdbccd56	-0.09218852
34	0xbcd2473b	-0.025668731
35	0xbd2362df	-0.039889213
36	0xbd99b97a	-0.0750608
37	0x3d820eca	0.06350477
38	0x3cfe17eb	0.031017264
39	0xbdc00a8e	-0.09377013
40	0xbd849fde	-0.06475805
41	0x3dd77749	0.10520799
42	0x3def112a	0.11673196
43	0xbdf5a3e2	-0.11994149
44	0xbdbad204	-0.091220886
45	0x3df3a47d	0.11896608
46	0xbc9d304c	-0.019188069
47	0x3d913164	0.07089499
48	0xbd55f2bd	-0.052233446
49	0xbdeafb58	-0.11473721
50	0xbb4b43e9	-0.003101582
51	0xbd8a2507	-0.06745344
52	0x3dc495e8	0.09598905
53	0x3d120939	0.035653327
54	0x3d994548	0.074839175
55	0xbda84261	-0.08215786
56	0x3dc86e3c	0.097866505
57	0xbd970f85	-0.07376007
58	0x3c4598ea	0.012060383
59	0x3d63da42	0.05562807
60	0xbdfc925e	-0.12332605
61	0x3d5ada4d	0.053430844
62	0x3d88f211	0.066867955
63	0x3c91e13b	0.017807594
64	0x3df3e628	0.11909133
65	0xbd799636	-0.060934268
66	0xbda72dd3	-0.08163037
67	0x3d61cf52	0.055129357
68	0xbdd6066e	-0.10450445
69	0x3dedb0ac	0.11605963
70	0x3d1988ad	0.03748386
71	0xbd6791b8	-0.056535453
72	0x3cfc82cc	0.030824088
73	0x3ced9fb6	0.02900682
74	0x3d076513	0.033055376
75	0xbdc4646b	-0.09589466
76	0x3d557e38	0.052122325
77	0x3de97856	0.113999054
78	0xbdfdc6bb	-0.123914205
79	0x3da3943b	0.07987257
80	0x3cf4b0c3	0.029869443
81	0x3df57735	0.119856276
82	0x3da1acd3	0.07894292
83	0xbdf37c01	-0.11888886
84	0x3d1e6a15	0.038675386
85	0xbde5420f	-0.1119424
86	0x3cbbe864	0.02293796
87	0xbdc09864	-0.09404066
88	0x3d4f5f14	0.050627783
89	0x3d7581a3	0.059938084
90	0xbd00fae9	-0.031489287
91	0x3c876988	0.016529813
92	0xbde1388e	-0.10997115
93	0x3dc7a965	0.09749106
94	0xbda8c2c7	-0.08240276
95	0x3dbcb9c6	0.09215121
96	0xbd2dabe4	-0.042400256
97	0x3d70809a	0.058716394
98	0xbcf29d7f	-0.029616116
99	0xbd0b75b1	-0.034047786
100	0xbddfae45	-0.10921911
101	0xbdc8b012	-0.09799208
102	0x3db72945	0.089434184
103	0xbde21942	-0.11039974
104	0x3ddac20b	0.10681542
105	0x3b1796e8	0.0023130719
106	0x3cc33a0a	0.023831386
107	0x3d8754c6	0.06607966
108	0x3de130d9	0.10995645
109	0xbdf81585	-0.121134795
110	0x3c73f40e	0.01488973
111	0x3d3af442	0.0456431
112	0x3cdf4e3c	0.027258985
113	0xbdb04b82	-0.08608152
114	0x3dc379d6	0.09544723
115	0x3d6ab2eb	0.057299536
116	0xbc8c46d7	-0.017123623
117	0xbb41434b	-0.0029489573
118	0x3dd42e36	0.103603765
119	0xbc93d814	-0.01804737
120	0x3d2dd456	0.042438827
121	0x3c24d095	0.010059495
122	0xbc2a7a4f	-0.010405137
123	0x3d94f874	0.07273951
124	0x3d54f67c	0.05199288
125	0x3e0094d3	0.12556772
126	0x3d239baf	0.039943393
127	0x3d331ca9	0.043728504
128	0x3d5bf17e	0.0536971
129	0x3d0ec04e	0.034851365
130	0x3d2b43cd	0.041812707
131	0xbd373b19	-0.044734094
132	0x3da70584	0.08155349
133	0x3deaf8a9	0.114732094
134	0xbdbdd173	-0.09268465
135	0x3dec6df2	0.11544408
136	0x3d8ec368	0.069708645
137	0xbbad00de	-0.0052796444
138	0xbd894ccf	-0.06704103
139	0xbcdb5bcf	-0.026777176
140	0x3da3f22d	0.08005176
141	0x3ddce9dd	0.107867934
142	0x3d02b6a4	0.03191246
143	0xbd069409	-0.03285602
144	0x3dc3997d	0.0955076
145	0x3dd1dd10	0.102472425
146	0xbde970bd	-0.11398456
147	0xbbd19470	-0.006395869
148	0xbd87df2a	-0.06634362
149	0x3cf63553	0.030054724
150	0xbdec417b	-0.11535927
151	0xbdf32406	-0.11872105
152	0x3d858ca5	0.065209664
153	0x3d1fc9f4	0.039010957
154	0x3d76e355	0.060275394
155	0x3d85ea1c	0.065387934
156	0x3dce4fca	0.10073812
157	0xbcc96ef2	-0.024589036
158	0x3df88c5c	0.121361464
159	0x3d1bb7a0	0.038016915
160	0xbd8d59f6	-0.06901924
161	0xbdf21825	-0.118210115
162	0xbc8857ca	-0.016643424
163	0xbd5e80ec	-0.05432217
164	0x3db3b520	0.08774781
165	0xbdaae7a4	-0.08344963
166	0xbdf914c8	-0.12162167
167	0xbdb21a60	-0.08696437
168	0x3ca5413a	0.020172704
169	0xbd4d3bb4	-0.050105765
170	0xbd1c104c	-0.03810148
171	0x3dbe6e29	0.09298355
172	0xbdb0dd15	-0.08635918
173	0xbdb70686	-0.08936791
174	0xbdf2d281	-0.11856557
175	0xbb288fc7	-0.0025720464
176	0x3d8ba014	0.06817642
177	0x3db15347	0.08658462
178	0xbcb39aea	-0.021924455
179	0x3df9f808	0.12205511
180	0x3aef6071	0.0018262995
181	0xbda89182	-0.082308784
182	0xbde94c5e	-0.11391519
183	0xbd8df250	-0.06930983
184	0xbce878fc	-0.028378002
185	0xbc266114	-0.010154981
186	0x3d8be15f	0.068300955
187	0x3c9b8aa9	0.018987017
188	0xbd0294db	-0.03188024
189	0x3da30eb4	0.07961789
190	0xbd920c0e	-0.071312055
191	0xbcb54d28	-0.022131518
192	0x3dc56007	0.096374564
193	0x3db1a0ec	0.086732715
194	0xbd17033c	-0.03686832
195	0xbd0ea6e2	-0.03482712
196	0xbcb73d10	-0.022367984
197	0x3da66db4	0.08126393
198	0x3dd2d762	0.10294987
199	0xbd8c495c	-0.0684993
200	0x3dd37359	0.10324735
201	0xbda43d8c	-0.08019552
202	0x3db130d6	0.08651893
203	0x3de9f470	0.11423576
204	0xbd9b8053	-0.07592835
205	0xbdd81731	-0.105512984
206	0xbd7157a7	-0.058921482
207	0x3d9e4690	0.077283025
208	0x3d13660e	0.035986
209	0xbd33b76e	-0.043876104
210	0xbd4d8b7c	-0.05018185
211	0xbc9b330c	-0.01894524
212	0x3ddb12ec	0.106969684
213	0x3dc18f6b	0.09451183
214	0xbdb0b940	-0.08629084
215	0x3c5b53cf	0.013386681
216	0xbd821815	-0.063522495
217	0xbdecfd88	-0.11571795
218	0x3d8fccfc	0.070215195
219	0x3cd918eb	0.02650114
220	0x3ce1bdd7	0.027556343
221	0x3c857e9b	0.016295722
222	0xbdb804ed	-0.089853145
223	0x3da924db	0.08258983
224	0xbdfeed03	-0.1244755
225	0x3debf60c	0.11521539
226	0x3cad1246	0.021126878
227	0x3dfc69bf	0.12324857
228	0xbde2c2c3	-0.11072304
229	0x3df18138	0.11792225
230	0x3de08e7a	0.10964675
231	0x3c178369	0.009247639
232	0x3d73cdae	0.059522323
233	0x3c8180e9	0.01580854
234	0x3b1060e6	0.0022030412
235	0xbdef489c	-0.11683771
236	0xbdc0561d	-0.09391425
237	0xbc80033e	-0.015626546
238	0xbdc64570	-0.09681213
239	0x3dc6ed48	0.097132266
240	0x3c16f937	0.009214691
241	0x3da25016	0.079254314
242	0x3da979a4	0.08275154
243	0xbddf5ba9	-0.10906155
244	0xbdc846a2	-0.09779097
245	0xbd1c4d3a	-0.038159586
246	0x3db24c5a	0.08705969
247	0xbdbdc03b	-0.09265181
248	0xbd329095	-0.043594915
249	0x3bddbf0c	0.0067671593
250	0x3d099854	0.033592537
251	0xbd2e9ab8	-0.04262802
252	0x3c06a2b6	0.008217504
253	0xbdc91422	-0.09818293
254	0xbd64d38c	-0.05586581
255	0x3db3e71c	0.08784315

net.2.bias f4 [64]
0	0xbb81cd78	-0.0039612614
1	0x3dbd44fb	0.092416726
2	0xbd9f127d	-0.07767198
3	0x3cbc4d5c	0.022986107
4	0x3d209a00	0.039209366
5	0xbc34f5c8	-0.011044927
6	0x3d79d6f6	0.06099602
7	0xbde4f27a	-0.11179061
8	0xbdcc79ab	-0.09984144
9	0xbd8cdb9b	-0.06877824
10	0xbd6052f5	-0.054766614
11	0xbdf1a681	-0.11799336
12	0x3dc831fc	0.09775159
13	0x3dca3770	0.09873855
14	0x3dd48824	0.10377529
15	0x3c48f4c2	0.012265386
16	0x3df05add	0.11736081
17	0xbc575e2b	-0.01314501
18	0xbdd11b71	-0.10210312
19	0xbdbef942	-0.09324886
20	0x3dc33ce9	0.09533102
21	0xbc0a54f3	-0.008443105
22	0xbc400ad0	-0.011721328
23	0xbd93ad47	-0.072107844
24	0x3d1d78c5	0.038445253
25	0x3d0a8da8	0.0338265
26	0x3d2a5251	0.04158241
27	0xbd9ca8d0	-0.07649386
28	0x3dc2f2ab	0.095189415
29	0x3d17bb18	0.03704366
30	0xbc30484e	-0.010759426
31	0xbdf5871a	-0.11988659
32	0x3e011db7	0.12608992
33	0x3da27293	0.079320095
34	0xbc74534c	-0.014912438
35	0x3dcba6ce	0.09943925
36	0xbdafdf1b	-0.08587476
37	0x3d045714	0.032309607
38	0xbdd251ef	-0.10269534
39	0x3d55d9d5	0.052209694
40	0xbde9a184	-0.1140776
41	0x3dc98486	0.0983973
42	0x3ba9dc0f	0.0051837037
43	0xbdcd0c9e	-0.10012172
44	0x3ddfc2a8	0.109257996
45	0x3d0a97cf	0.033836182
46	0x3da2a9b3	0.07942524
47	0xbd3a7230	-0.045519054
48	0xbda88cee	-0.08230005
49	0x3de52be3	0.11190011
50	0xbb0024ed	-0.001955326
51	0x3d8c3697	0.0684635
52	0xbda469ff	-0.0802803
53	0xbd4f8aa5	-0.05066933
54	0x3d96fcc5	0.07372431
55	0x3de35fba	0.11102243
56	0x3de5aca6	0.11214571
57	0xba9fd676	-0.0012194652
58	0x3da234ce	0.07920228
59	0x3d223eb3	0.039610576
60	0xbd77b58f	-0.060475882
61	0xbc4dd1e8	-0.012562253
62	0xbde0f66d	-0.10984502
63	0x3d2cebc5	0.042217035

net.4.weight f4 [10, 64]
0	0xbc0bf149	-0.008541414
1	0x3db3e7c6	0.08784442
2	0xbd93e597	-0.07221525
3	0xbdda68a5	-0.106644906
4	0x3dd256ad	0.10270438
5	0x3d345687	0.04402783
6	0x3bf5d6d0	0.0075024143
7	0xbdd5a578	-0.10431951
8	0xbdb1b1a2	-0.08676459
9	0xbdd65b01	-0.10466576
10	0xbc6a49a2	-0.014299782
11	0xbda83a0a	-0.08214195
12	0xbce55e61	-0.027999105
13	0x3ddbbaa7	0.107289605
14	0xbd1547fa	-0.036445595
15	0x3d4af9a8	0.049554497
16	0xbdc97403	-0.098365806
17	0xbd1e1765	-0.03859653
18	0x3de49733	0.111616515
19	0x3c8d0f8d	0.01721933
20	0x3d1d6620	0.038427472
21	0xbd61fde2	-0.055173762
22	0x3dee6692	0.116406575
23	0xbd5824e0	-0.05276954
24	0x3ab6c694	0.0013944679
25	0xbd441962	-0.04787577
26	0x3d63ee14	0.05564697
27	0x3cac5492	0.02103642
28	0x3d1e607a	0.038666226
29	0xbc4586b8	-0.012056045
30	0xbde05dda	-0.10955401
31	0xbc99c034	-0.018768407
32	0xbdbc5ce7	-0.09197407
33	0x3cfd8f90	0.030952245
34	0x3b54652a	0.0032408931
35	0xbda436c8	-0.08018261
36	0xbe0200b8	-0.12695587
37	0xbd58b6d0	-0.05290872
38	0x3c72a5fc	0.014810082
39	0xbaeaf709	-0.0017926405
40	0xbdc3de88	-0.09563929
41	0xbdda1e63	-0.10650327
42	0xbd0d695d	-0.03452431
43	0xbdc2652b	-0.094919525
44	0x3da55e1d	0.08074591
45	0x3ca4f0b3	0.020134306
46	0xbd7db023	-0.061935555
47	0x3d282b32	0.04105682
48	0x3db48514	0.08814445
49	0x3dd505a6	0.10401468
50	0x3d09e6ec	0.03366749
51	0x3d8b9f94	0.068175465
52	0x3df0ca9c	0.11757395
53	0x3cbba14b	0.022904059
54	0x3dbbceb0	0.09170282
55	0xbdef21be	-0.11676358
56	0xbd36f7a0	-0.044669747
57	0xbddb3b29	-0.10704643
58	0xbd3ffe94	-0.046873644
59	0x3dab151d	0.083536364
60	0xbd9c862d	-0.076427795
61	0xbca781f4	-0.020447709
62	0xbdc274c2	-0.09494926
63	0xbd7e0fd8	-0.06202683
64	0x3d31c1be	0.043397658
65	0x3dab110f	0.08352863
66	0x3d9e3508	0.07724959
67	0x3d56ac4f	0.05241042
68	0xbdfa531a	-0.122228816
69	0x3d930d32	0.07180251
70	0xbd87617d	-0.06610391
71	0x3db63dd4	0.088985115
72	0x3d2a176d	0.041526247
73	0x3df7e303	0.12103846
74	0xbbc5add6	-0.0060326857
75	0xbdc17fa4	-0.09448174
76	0xbd4b50b3	-0.049637508
77	0x3d93e2ae	0.0722097
78	0x3d754a28	0.059885174
79	0xbdbce154	-0.092226654
80	0xbd3de979	-0.046365235
81	0x3d915cf6	0.07097809
82	0xbd46be59	-0.048521373
83	0xbd85d439	-0.06534619
84	0xbda34ed5	-0.079740204
85	0xbda4c162	-0.08044697
86	0x3d9d422e	0.076786384
87	0x3df0e65c	0.117626876
88	0xbdc70452	-0.09717621
89	0x3dafb887	0.08580118
90	0xbe0204fe	-0.12697217
91	0x3dd3e985	0.10347275
92	0xbda7959c	-0.081828326
93	0xbca4313c	-0.020043008
94	0xbdc9dc91	-0.09856523
95	0x3ddadcf6	0.10686676
96	0xbe00f930	-0.12595057
97	0xbdb50a62	-0.08839871
98	0xbdb35020	-0.08755517
99	0xbbf4726c	-0.007459929
100	0x3d34bef6	0.044127427
101	0xbdc00480	-0.09375858
102	0x3dae9366	0.08524208
103	0xbdbd27bf	-0.092360966
104	0x3deb3fd0	0.11486781
105	0x3da8aa5b	0.08235618
106	0xbca770a3	-0.020439452
107	0xbbeccfbc	-0.0072269123
108	0xbdcdd500	-0.10050392
109	0x3d89c5d7	0.06727188
110	0x3da38853	0.07984986
111	0x3de71146	0.112825915
112	0xbb8f2260	-0.0043681115
113	0xbd59fc3a	-0.053219058
114	0xbc6a4ba8	-0.014300264
115	0xbdfdbed1	-0.12389911
116	0xbd0afe73	-0.033934068
117	0xbd8ed738	-0.069746435
118	0xbdf79b33	-0.12090149
119	0x3de00c6f	0.109398715
120	0x3b092b14	0.0020930218
121	0x3d80a5aa	0.06281598
122	0x3d689053	0.056778263
123	0x3d93d9cf	0.07219278
124	0x3d617192	0.05503995
125	0xbd564b61	-0.05231798
126	0xbdca9cee	-0.09893213
127	0xbd18d99a	-0.037316896
128	0xbd5f9ef9	-0.054594968
129	0xbddec91f	-0.108782046
130	0x3c358e97	0.011081359
131	0xbd2c3ea6	-0.042051934
132	0xbdac2bd3	-0.08406796
133	0xbb7cc424	-0.0038569057
134	0x3dd6a79b	0.10481187
135	0x3cd8a84a	0.026447434
136	0x3d49f179	0.049302552
137	0x3ca9904f	0.020698695
138	0xbd147e3d	-0.036253203
139	0xbdbc5106	-0.091951415
140	0x3dd9063d	0.10596893
141	0x3c1ec333	0.009690094
142	0x3d9b7d13	0.075922154
143	0xbd90143a	-0.07035108
144	0x3d9b4db7	0.07583182
145	0xbd41d170	-0.047318876
146	0xbdde6c81	-0.10860539
147	0x3d47c03b	0.04876731
148	0x3d8d489d	0.068986155
149	0xbdf38eee	-0.11892496
150	0xbd216d93	-0.03941114
151	0xbd8d1537	-0.06888812
152	0x3b93cdc8	0.004510615
153	0xbdd528fb	-0.10408207
154	0x3df18b5e	0.1179416
155	0x3d146b61	0.036235217
156	0xbdc88f69	-0.09792978
157	0x3ddb603e	0.10711716
158	0xbde2f463	-0.11081769
159	0x3d9be876	0.07612698
160	0x3b24de82	0.002515704
161	0x3cd3cd87	0.025854839
162	0x3deaacc8	0.11458737
163	0x3dd710b7	0.10501235
164	0x3dda6463	0.106636785
165	0xbd902127	-0.07037573
166	0xbd195e5a	-0.037443496
167	0xbdf65846	-0.120285556
168	0xbdb8c891	-0.0902263
169	0xbd2b63cb	-0.041843217
170	0x3c82b911	0.015957387
171	0x3d2efcbc	0.042721495
172	0xbd5d1e01	-0.053983692
173	0x3deb6151	0.11493171
174	0x3d757534	0.059926227
175	0x3db08bf9	0.08620448
176	0xbd843af8	-0.0645656
177	0x3d4ca817	0.04996499
178	0xbdb1b32e	-0.08676754
179	0xbd826b47	-0.06368118
180	0xbd09ee63	-0.03367461
181	0x3df0812b	0.11743387
182	0xbd8e97cf	-0.06962549
183	0x3d2b8347	0.041873243
184	0xbcfec105	-0.031097898
185	0xbda0e9d9	-0.07857103
186	0xbb96c449	-0.0046010357
187	0x3dadbe73	0.08483591
188	0x3cdf4d5b	0.027258566
189	0xbd759e70	-0.05996555
190	0x3da93b8e	0.08263312
191	0xbdc29760	-0.09501529
192	0xbd9480d3	-0.07251134
193	0xbce7c75e	-0.028293308
194	0xbcdbf847	-0.026851786
195	0x3d8e6cf2	0.069543734
196	0x3d6e8f87	0.058242347
197	0xbdacc86f	-0.08436667
198	0x3dd95612	0.1061212
199	0xbd5621d9	-0.052278373
200	0x3ddafabf	0.10692357
201	0xbd8946c2	-0.06702949
202	0x3c6fa811	0.0146274725
203	0xbbed7b68	-0.007247377
204	0x3dbcb2cc	0.0921379
205	0xbce6885b	-0.028141191
206	0xbcffab88	-0.031209722
207	0xbdf70754	-0.120619446
208	0x3dab3039	0.08358807
209	0x3c3fd3c7	0.0117082065
210	0x3da5c011	0.080932744
211	0xbd2232fb	-0.0395994
212	0x3cac4429	0.021028595
213	0xbd716844	-0.058937326
214	0xbc9c8b81	-0.01910949
215	0xbdc89a9c	-0.097951144
216	0x3d2d1b0b	0.04226212
217	0x3d9675f7	0.07346719
218	0xbd972084	-0.07379249
219	0x3d0e4910	0.034737647
220	0xbc77c022	-0.015121492
221	0x3d09b131	0.03361625
222	0xbb6f5aba	-0.0036522583
223	0x3bff6221	0.0077936803
224	0x3ba6834f	0.005081571
225	0xbdb76b2b	-0.089559875
226	0x3d24319b	0.04008637
227	0x3deefed9	0.11669702
228	0xbd6753be	-0.056476347
229	0x3cc63c53	0.024198687
230	0xbd25654d	-0.04037981
231	0x3d9661f9	0.073429056
232	0x3d882b4d	0.06648884
233	0x3c889a7a	0.016675223
234	0x3dc5e60e	0.0966302
235	0xbdc95843	-0.09831288
236	0xbd2fd36c	-0.042926237
237	0x3d91c88a	0.07118328
238	0x3d9ef174	0.07760897
239	0xbb8fd1bd	-0.0043890164
240	0xbc9e5448	-0.019327298
241	0xbd8621b6	-0.065493986
242	0x3df9d922	0.12199618
243	0xbdafc332	-0.085821524
244	0x3dc86221	0.097843416
245	0xbdea750f	-0.114481084
246	0xbd532019	-0.051544283
247	0xbc9aabbe	-0.018880721
248	0x3bd1cd11	0.0064026196
249	0x3d59c77a	0.05316875
250	0x3d62efe1	0.055404548
251	0x3deaba8b	0.114613615
252	0x3e007d3a	0.1254777
253	0x3d1a0239	0.037599776
254	0xbc20d66f	-0.00981675
255	0xbd7abb93	-0.06121404

net.4.bias f4 [10]
0	0x3d6f8da8	0.058484703
1	0xbdc86c23	-0.097862504
2	0x3cff51a3	0.031166857
3	0xbd71d225	-0.0590383
4	0xbd9e4cc2	-0.07729484
5	0xbdc8b6c2	-0.09800483
6	0xbca983b2	-0.02069268
7	0x3d157f33	0.03649826
8	0x3d3767db	0.04477678
9	0x3de459ff	0.11149978
