ultra_actor_model.pt (torch, 74476 bytes, 6 tensors)

input.weight f4 [128, 8]
000000 f5 b4 9e be 0d 29 55 3e 32 95 6a be 74 82 97 be
       -0.30997434 0.20816441 -0.22908476 -0.29591715
000010 66 c6 26 bf 06 aa 5c be 8d 74 b9 3e b9 a6 f9 bd
       -0.6514648 -0.21549234 0.36221734 -0.12190003
000020 5b 19 5a bc 02 86 63 be 72 6e 91 be 72 bd ec be
       -0.013311709 -0.22219089 -0.28404576 -0.46238285
000030 4f 96 e2 3e f4 ac c8 3b f6 22 e0 3d 43 c6 39 3e
       0.442553 0.0061241332 0.10944168 0.18142037
000040 f3 8e 03 3f d2 25 15 bd 31 49 ef bd e4 7a 29 bf
       0.5139 -0.03641302 -0.11683882 -0.6620314
000050 53 8c 0d 3e 93 40 37 3e b9 db cf bc 40 7c 77 be
       0.1382306 0.17895727 -0.025373327 -0.24168491
000060 31 34 5d 3f 55 e0 96 bc 36 11 71 3e 7e 6c f0 3e
       0.8640776 -0.018417517 0.23541722 0.46957773
000070 c5 22 fa bb 41 12 bb 3e a0 3a 9e bc 76 e5 82 3e
       -0.0076335394 0.36537364 -0.019315064 0.2556569
000080 14 bb 23 bf 26 a8 e3 3c 85 1f 23 be 3a f1 08 be
       -0.63957334 0.02779014 -0.15929992 -0.1337327
000090 11 00 8b 3d 0b 32 16 bf 07 5d 30 be f3 f3 18 be
       0.06787122 -0.5867011 -0.17222987 -0.14936809
0000a0 2d c1 d3 3e ca fa d7 be 15 94 eb 3e ee b1 8d be
       0.4135832 -0.42183524 0.46011415 -0.27674812
0000b0 7b f1 b3 be 9f eb ee 3e 32 dc 5c bd 20 47 42 3e
       -0.35145172 0.4666414 -0.053920932 0.18972445
0000c0 b9 b4 04 bf 87 fe e3 3d fd 85 77 be c5 ac c4 3e
       -0.5183826 0.111325316 -0.24172206 0.38413063
0000d0 ab 3f 0d bf e2 f1 06 3e 29 d7 0e be 9b 62 b1 3d
       -0.55175275 0.13178208 -0.13949265 0.086613856
0000e0 ec 65 83 be 35 4b 88 3e f8 d4 96 be 27 1f d6 3e
       -0.25663698 0.26619878 -0.29459357 0.41820642
0000f0 0c ec 2a 3f 28 eb 80 be ed 40 98 3e 3d 6d 24 be
       0.6676643 -0.2517941 0.29737034 -0.16057296
000100 f5 ad 35 3d 3d 51 09 bf b4 8e 9b 3e 1d 3b fc be
       0.04435535 -0.53639585 0.3038231 -0.4926385
000110 34 13 e2 3c 95 76 02 3e a7 1e 1d be 8d c2 af 3e
       0.027597047 0.12740548 -0.15343724 0.34328118
000120 15 d9 85 be fd 99 db be 98 bb c8 bd 2c 1e 84 be
       -0.26142183 -0.4289092 -0.09801406 -0.2580427
000130 5d ab 02 bc b7 32 83 bd 59 05 bf 3e 25 a9 6f 3d
       -0.0079754265 -0.064061575 0.37308767 0.05851092
000140 66 f7 e0 be 34 24 5d 3d bb dc 0a bf ed 2b 0a bf
       -0.4393875 0.053989604 -0.5424306 -0.53973275
000150 5e 6f 8f 3e 0e 20 37 3e a2 71 51 3d b1 1e 5a 3e
       0.28014654 0.17883322 0.05113376 0.2130077
000160 37 09 ae 3e 76 f1 da 3e 41 83 6c be 5b 0a d4 3e
       0.33991405 0.42762345 -0.23096944 0.4141415
000170 03 98 b9 be c4 2e 7b be 3e 45 03 be f4 83 08 be
       -0.36248788 -0.24529558 -0.12819383 -0.13331586
000180 7e 97 60 3e 8e f5 8c 3e 3f 0b a5 bc a9 b2 af 3d
       0.2193279 0.27531093 -0.020146964 0.085789986
000190 da df ec 3e a0 88 39 be 35 05 4f be 99 d5 41 3e
       0.46264535 -0.18118525 -0.2021683 0.18929137
0001a0 0c a8 d1 be 17 41 0b be 15 da 82 bd ea 6c 04 bf
       -0.40948522 -0.13599049 -0.06389252 -0.5172869
0001b0 8b 98 1b bd a1 87 29 be c4 6c 62 3d 3b 73 64 3e
       -0.037987273 -0.16555645 0.05527951 0.22309582
0001c0 ef 80 ad be 37 59 92 be 72 e7 82 be d0 c3 14 3f
       -0.3388743 -0.2858369 -0.25567204 0.58111286
0001d0 ff 89 e9 3d 91 c9 21 3e 92 14 24 3d ed a5 96 3e
       0.11403274 0.15799548 0.04005868 0.29423466
0001e0 cb 79 dd 3e 23 2f 44 3e e7 e4 9f be f3 99 01 3e
       0.43256983 0.19158606 -0.31229326 0.12656383
0001f0 1a cf c0 be bf a7 d2 3e 78 34 a0 3e 45 36 a8 bd
       -0.37658006 0.41143605 0.3129003 -0.08213476
000200 64 2c 18 3e 3d fb 05 3f 16 b2 7e bd 0e 5b e3 3e
       0.14860684 0.52336484 -0.062181555 0.44405407
000210 fc 1e b1 3d 74 4c 9e 3b 23 fa 10 3e d4 ba 2b 3e
       0.08648488 0.0048308913 0.1415792 0.16770488
000220 c0 62 e8 3e fa 90 fc 3c 99 8e 6b 3f 7b 25 bf 3d
       0.4538784 0.030830849 0.9201446 0.09333321
000230 df c2 8f be c0 88 a0 bc 03 ab 90 bd c9 55 9e be
       -0.28078362 -0.019596457 -0.07063868 -0.30924824
000240 e8 92 d9 3d ba 34 5b be 01 cd 13 3f be a4 16 3f
       0.10623723 -0.21406832 0.57734686 0.58845127
000250 a1 77 f6 be 7b 4d b7 bd b1 94 fc 3d ca b7 92 be
       -0.48138145 -0.08950325 0.12333048 -0.28655845
000260 1d 46 1d bd 6a 5f 84 bd 3c 3b 5b 3e 45 d8 14 be
       -0.038396943 -0.06463511 0.21409315 -0.14535625
000270 48 20 8b be 0e 0c a1 3c 42 b9 67 3c f3 11 a9 3d
       -0.27173066 0.019659068 0.01414329 0.08255377
000280 c5 24 a3 3d 73 6b d0 bd 27 55 16 3e cd 00 fd 3d
       0.079659976 -0.10176744 0.1468092 0.12353668
000290 50 58 36 3e 68 48 5b bf 97 47 af bd 26 83 43 3e
       0.17807126 -0.8565736 -0.085585766 0.19092998
0002a0 9b 3d a0 3d 2f 4d 43 3e 59 ed 31 be 0c a8 f8 bc
       0.0782425 0.19072412 -0.17375697 -0.030353568
0002b0 68 5b 00 3e 25 fb 15 3d d3 a0 47 3d ab f2 4d 3d
       0.12534869 0.036616463 0.04873736 0.050280254
0002c0 08 1a 11 3d 94 fd ca 3b e4 10 a4 3e d3 03 97 be
       0.035425216 0.0061947796 0.32044137 -0.29495105
0002d0 83 be a8 be db 06 cc ba 55 18 ad 3d b9 f5 c2 be
       -0.3295785 -0.0015566008 0.084519066 -0.38078097
0002e0 02 b7 ec bd 63 e0 1f bb 15 9f f3 3e 75 37 7d be
       -0.115583435 -0.002439522 0.47582307 -0.24728186
0002f0 cf 70 5f be 49 64 2a 3e 72 0d ef bd 3e 95 d0 bc
       -0.21820377 0.16639818 -0.11672486 -0.02546179
000300 6c d0 8a 3e 5d d5 35 3d b5 67 96 3c 24 29 f1 bd
       0.27112138 0.044392932 0.018359998 -0.11775425
000310 ba 08 23 be 8a 58 d0 be e9 a3 17 3e 12 0c 85 3d
       -0.15921298 -0.4069255 0.1480862 0.06496443
000320 87 54 36 be f5 8e 6f 3d ea 39 ad bd f4 a1 8f be
       -0.17805682 0.058485944 -0.08458312 -0.28053248
000330 aa b2 82 3e 9f 66 0b 3e 7c b3 d0 bb a0 6d 35 3e
       0.25526935 0.13613366 -0.0063690525 0.177176
000340 9a 89 8a 3d bd 95 85 3e 6a 21 30 be 75 f6 37 3e
       0.06764527 0.26090804 -0.17200246 0.1796511
000350 bb 4d 72 3d bd b8 f0 3e cd 95 b3 3e 37 28 94 3e
       0.05915616 0.47015944 0.35075226 0.28936931
000360 cd 0e 65 bc 5a e5 dc 3e de 6b 3d 3d 9e d2 35 bf
       -0.01398058 0.4314373 0.04624545 -0.710245
000370 a7 8d cd be ed c7 f9 3d 22 e3 48 be b5 5e 10 be
       -0.40147135 0.12196336 -0.19617894 -0.14098628
000380 1a 34 f4 bd 6a c3 22 bd ef 6b 92 3e fe 77 b4 be
       -0.11924 -0.039737143 0.28597972 -0.35247797
000390 f2 40 03 bf 03 1b a0 be f5 15 46 be 6a 2f 66 be
       -0.51270974 -0.31270608 -0.19344313 -0.22479025
0003a0 1d de 0d 3f 4f af d4 be d7 56 09 3f 4e e9 90 3e
       0.5541704 -0.4154 0.5364813 0.28302997
0003b0 f8 9c 25 be 88 d6 47 3e 58 75 b3 bc 6c 54 1f be
       -0.1617316 0.19515431 -0.02190654 -0.15559548
0003c0 58 34 36 3d e4 c6 73 bd d7 01 76 3d 34 f5 91 bd
       0.044483513 -0.05951585 0.06006035 -0.07126847
0003d0 66 14 1a be 81 53 75 be 38 7c 80 3d ff 5a 8f 3d
       -0.15046844 -0.23957635 0.06273693 0.06999778
0003e0 bc 08 5b bc 7c bf 2a 3e 04 88 5b be 60 4e fa 3e
       -0.013368782 0.16674608 -0.21438605 0.4888792
0003f0 73 36 27 bf 18 db 8b be c3 ee f5 bd 9c b8 63 3d
       -0.6531746 -0.27315593 -0.12008431 0.05559598

input.bias f4 [128]
000000 61 3e 4e 3d b3 04 08 3d 2a c7 ec bc 1d 15 86 bc
       0.050352458 0.033207607 -0.028903563 -0.01636749
000010 ac b2 06 3e 21 37 93 bd 33 11 4b be 4c 63 cd bd
       0.13154095 -0.071882494 -0.1983078 -0.10028705
000020 ac 03 b7 be 92 ca d8 bd 30 61 ce bd ea b4 8c bd
       -0.3574499 -0.10585512 -0.10077131 -0.06870444
000030 9a 32 7e 3e 38 c1 bf 3c 41 a9 f7 3d b2 b1 15 be
       0.2482399 0.023407564 0.120928295 -0.14618567
000040 9d 0d 83 3e 7d c7 57 be bc c4 83 3e 5f 72 80 bb
       0.25596324 -0.21072192 0.25736034 -0.003919884
000050 c7 92 cc bd e9 bd 6b bd fa 24 a7 3e b8 0e 93 3e
       -0.09988933 -0.05755416 0.32645398 0.28722167
000060 a8 e1 bf bd 9e 4d c2 3d 73 b7 ed 3c 67 20 33 3e
       -0.093692124 0.094874606 0.02901814 0.1749283
000070 ef f7 25 bd d8 93 88 be ea 16 7e bd 23 21 83 bd
       -0.04051965 -0.26675296 -0.06203357 -0.06402805
000080 28 bb af 3e 5a 6e 22 be 65 91 14 3d 78 93 31 bd
       0.34322476 -0.15862408 0.03627147 -0.043353528
000090 48 11 3a be 82 41 89 be b2 97 d1 3c f6 7d 6b 3e
       -0.18170655 -0.2680779 0.02558503 0.22997269
0000a0 55 2e 97 bd 82 3b a3 be 11 21 63 3b a3 df 10 be
       -0.07381884 -0.31881338 0.003465716 -0.1414781
0000b0 52 0c 70 3d c2 99 99 3e 0f 24 33 be 9a cc 63 3e
       0.0586055 0.3000012 -0.17494224 0.22246018
0000c0 1a ae b7 be b3 8d 47 3e b7 42 3b 3e de 96 86 3e
       -0.35875016 0.19487648 0.18287168 0.26286978
0000d0 ca e3 dc bd 5c cd 41 bc 4d f0 9e 3d d1 32 31 be
       -0.10785635 -0.011828747 0.077606775 -0.17304541
0000e0 70 f0 33 38 58 04 25 3d d6 df d1 be f0 6a 2b be
       4.290085e-05 0.040287346 -0.40991086 -0.16740012
0000f0 83 cd b2 be 02 63 8e 3e 8c 04 c8 bc ec 5c 01 3e
       -0.34922418 0.27809912 -0.02441623 0.12633103
000100 a1 2f 8a bd 03 16 98 3e 36 9f 50 3c 5c 8f 4b bd
       -0.06747366 0.29704294 0.012733271 -0.049697265
000110 d2 04 de 3d 93 ad f2 be b8 2a 8c be cc 2b 07 bc
       0.10840763 -0.47398052 -0.27376342 -0.008250188
000120 6e e5 7c 3e 57 bd ce bd 8a 8f a7 be f0 ef 1d be
       0.24696895 -0.100947075 -0.327267 -0.1542356
000130 01 37 2d bd 87 6c 6b 3e 97 17 63 bc b9 4c 0a bd
       -0.042288784 0.22990619 -0.013860605 -0.033764575
000140 24 2e 6d 3d 6a b1 c6 3d 86 10 0c bd 61 0b 22 bd
       0.05790533 0.09701808 -0.034195445 -0.039561633
000150 8d c0 80 bb 51 3c 43 be f6 50 92 be 57 cb d2 3d
       -0.003929204 -0.19065978 -0.28577393 0.1029269
000160 ba bf 21 3e d4 25 b5 be d0 f9 9d 3e a1 2c 96 3e
       0.15795794 -0.35380423 0.30854654 0.29330924
000170 07 32 a8 3e e6 e0 1a 3e 23 d1 48 3e ff 15 4d 3e
       0.32850668 0.15124854 0.1961103 0.20027922
000180 b0 35 cc be e8 2f 4e 3e b8 e4 8a 3b fb 6b 6c be
       -0.3988471 0.20135462 0.004238691 -0.23088066
000190 a5 49 6d be 3d 8a 4f bd 03 29 39 3d 7b 8e 55 3e
       -0.23172624 -0.050668944 0.045205127 0.20855133
0001a0 2e b5 57 bd 4d 77 87 bc 8b f9 5a 3e 4c 25 7b 3e
       -0.05266302 -0.01653638 0.21384256 0.24525946
0001b0 62 ae 38 3e 48 2b 92 bd 2e 5b 78 83 1c 85 c2 3e
       0.18035272 -0.071371615 -7.298532e-37 0.3799218
0001c0 4a f4 f0 bc f2 22 7b 3d f9 fe 0e be ca 15 ab 3c
       -0.029413361 0.061312623 -0.13964452 0.020884413
0001d0 89 c1 80 bd a9 89 5e be 4f e4 41 3d 64 13 41 bd
       -0.06286914 -0.217322 0.047336873 -0.047137633
0001e0 ec 7f d4 3d 87 1d fe 3d 61 b2 f4 bd 68 5e b3 3c
       0.10375962 0.12407976 -0.119480856 0.021895602
0001f0 9f ed ca 3d 64 36 c3 bc 8a e5 91 be 58 78 ef bd
       0.09908604 -0.023829646 -0.28495437 -0.116928756

net.1.weight f4 [128, 128]
000000 82 bd 82 be 8c 2c 87 3e 98 ea fa bd 7f 15 12 be
       -0.25535208 0.26401174 -0.122517765 -0.14266013
000010 14 1a 85 bd 52 6b 15 bd 8b b1 f3 3d cc 9e 55 3d
       -0.06499115 -0.0364793 0.11899098 0.052153394
000020 17 03 40 bc 16 b5 2f 3d b0 6f d7 3e f8 ba 04 bd
       -0.011719487 0.042897306 0.42077398 -0.03240487
000030 28 b5 0a be 81 37 9f be 24 2e e5 3e 25 ad f3 3d
       -0.13545668 -0.31097034 0.44761765 0.11898259
000040 3a 8a 50 3e 8f c1 97 3e b4 80 33 3e 41 64 ba 3c
       0.20365229 0.2963986 0.17529565 0.022752883
000050 cb cf 83 be 8c 41 3f bc 4b 11 48 be 7d 57 05 3c
       -0.2574447 -0.011673342 -0.19537847 0.008138535
000060 f9 7e 5d bd ac 73 92 3d b9 d1 f7 3d 75 a8 44 3c
       -0.05407617 0.07150969 0.12100548 0.012003054
000070 fc e2 33 be a5 f1 66 bd 82 9e 00 be 55 73 1c be
       -0.17567056 -0.056382794 -0.12560466 -0.1527837
000080 ce c3 03 be 3c 76 97 bc dc 63 35 bd 7d c3 09 be
       -0.12867662 -0.018488996 -0.044284686 -0.13453479
000090 37 c6 a5 bd e7 1e 30 be 2c 6c a8 3e 28 8e ab 3e
       -0.08094447 -0.17199288 0.3289503 0.33506894
0000a0 f7 34 e9 bc 2a f8 1f 3d df 73 05 be 9f ff ad bd
       -0.028467638 0.039055027 -0.13032483 -0.084960215
0000b0 bd 73 65 3e 58 23 14 3e 6b d0 cd 3d 37 ca 70 3e
       0.22407432 0.14466608 0.10049518 0.23514639
0000c0 e2 20 92 3b f8 8f c0 3e 70 62 63 bd 6c 94 c0 bd
       0.0044594863 0.3760984 -0.0555138 -0.09403309
0000d0 ee 27 82 3d 2e 80 64 3b e4 41 34 bf b9 5f 10 be
       0.06355272 0.003486644 -0.7041304 -0.14099015
0000e0 b6 ad eb 3c 69 7d 39 be 43 ef 2b 3d 7e ef 68 be
       0.028769355 -0.18114246 0.041976225 -0.22747609
0000f0 17 9a 30 be 80 b9 2b 3e f0 f8 84 3b 20 5f 1e 3e
       -0.1724628 0.16769981 0.004057996 0.15465975
000100 de 56 1f be ba 38 44 be 04 56 75 be 78 58 ab bb
       -0.15560481 -0.19162264 -0.23958594 -0.005229052
000110 a5 e1 14 3e a7 e5 46 3e e3 4d c6 3d b2 e5 5c 3c
       0.14539202 0.19423543 0.096828245 0.013482498
000120 21 07 15 3e d6 81 37 3d 26 ba d4 bd cc d8 e1 3c
       0.145535 0.044801556 -0.103870675 0.027569197
000130 47 07 25 3e 80 a4 27 3c 64 ca bd 3d 5d c5 f5 3d
       0.16116057 0.010232091 0.092671186 0.12000535
000140 27 d8 8e bd e2 5c ff 3d da 63 4d bc 3f 33 7f be
       -0.069748215 0.12468888 -0.0125360135 -0.24921893
000150 8e c9 46 be 44 fc 48 3e b9 0c 55 3e 7a bc 7e 3e
       -0.19412825 0.19627482 0.20805635 0.24876586
000160 14 01 9c 3e 80 1f ee 3e 87 64 46 be 6d 5e c6 bd
       0.30469573 0.46508408 -0.19374286 -0.09685979
000170 a1 17 c6 3d 27 13 87 bd 51 bc 6b bb 36 b7 e7 3d
       0.096724756 -0.0659545 -0.00359704 0.113142416
000180 70 57 f2 3d e3 a4 ad 3e 2e 17 79 be d9 40 76 3d
       0.11833084 0.3391486 -0.24325249 0.060120437
000190 8d af 1f 3e 92 f7 3c 3e bf 01 58 bd 9f 16 f4 3c
       0.15594311 0.18453816 -0.05273604 0.029795943
0001a0 6f e3 79 bd 1a 52 b9 bb 83 1f 8e 3b 3c f6 a6 bd
       -0.061007913 -0.005655539 0.0043372526 -0.08152434
0001b0 e6 75 cb 3b 9e b4 d9 bd e2 73 7c 03 e2 ab 42 be
       0.006209123 -0.10630153 7.418917e-37 -0.1901088
0001c0 dc 66 8b 3a 61 3d 23 3e 04 e0 19 3e 1f c9 0c bf
       0.0010635513 0.15941383 0.15026861 -0.54994386
0001d0 72 ed 00 bc c9 a2 03 be b1 07 a8 3e 17 22 68 3e
       -0.007869111 -0.12855066 0.32818368 0.22669254
0001e0 4d b5 52 be a4 bf 24 be 8c f3 2a 3e 62 77 b5 3d
       -0.20576973 -0.1608873 0.16694468 0.08860661
0001f0 19 3a 0e be c6 a8 15 36 94 fb d8 bd ff f3 5c bd
       -0.1388935 2.230097e-06 -0.1059486 -0.05394363
000200 08 eb 6c 83 a2 8d 31 3e 6b fc 2d bd 13 59 ba 39
       -6.962397e-37 0.17339185 -0.042477053 0.0003554305
000210 b9 43 5e bf 63 88 02 bf f2 7e bf bd 86 2d b6 3d
       -0.86822087 -0.5098936 -0.09350385 0.08895402
000220 59 fb 83 3d 34 25 18 3e 18 83 77 3d 48 ea d3 be
       0.06444425 0.14857942 0.060427755 -0.4138968
000230 8b ca 9f bc a3 a4 28 be 41 b4 61 3e 00 71 48 bc
       -0.01950576 -0.16469054 0.22041418 -0.012233973
000240 ee 08 3b 3e 30 36 78 bd b8 36 45 bd bb a7 17 02
       0.18265125 -0.060598552 -0.048147887 1.1141864e-37
000250 e7 3c 36 be 49 04 4f 3d f1 15 7e be 8e 39 08 be
       -0.1779667 0.050541196 -0.24813057 -0.13303205
000260 ca cf 6b 83 96 5a 82 bc d8 c9 63 be f1 9d 39 bc
       -6.9298823e-37 -0.015912335 -0.22244966 -0.01132916
000270 a8 c2 39 02 cf 79 8a bd 82 6f 65 83 d9 c0 8a 3e
       1.3647517e-37 -0.067615144 -6.7425056e-37 0.27100256
000280 2c cb 80 be a8 11 96 3d 03 51 7c 83 47 4d 40 3d
       -0.25155008 0.073275864 -7.414914e-37 0.046948697
000290 11 31 42 bb 9a ec 76 3e 58 d6 8a be ef 53 81 be
       -0.0029631297 0.24113694 -0.27116656 -0.2525935
0002a0 42 0b 3c 3c dc 81 71 83 db 05 b6 3d ed be b4 3d
       0.011477293 -7.0972606e-37 0.088878356 0.08825479
0002b0 53 77 5e 3f f1 c4 03 bf 75 23 f0 bd fd fb 12 bf
       0.86900824 -0.51472384 -0.11725513 -0.57415754
0002c0 ff b7 ee bb a2 a5 71 3e b3 fe 7a bf ea 2b 0e bd
       -0.0072851176 0.2359834 -0.9804489 -0.03470985
0002d0 26 58 ea 3d 44 cf 9d bb 5d 17 0e be 69 24 99 bd
       0.11442594 -0.0048159678 -0.138761 -0.07477648
0002e0 f5 ba 6c 03 6a 3a 82 be 8b b3 de be 47 7e f7 be
       6.9568783e-37 -0.2543519 -0.43496355 -0.4833853
0002f0 41 50 ff bc c9 a5 11 3e 52 f7 f3 02 69 ec ed bd
       -0.031166198 0.14223398 3.5847596e-37 -0.11617357
000300 74 cc 9a be 98 46 16 be 81 fc 25 bd 1d d9 73 83
       -0.3023411 -0.14675367 -0.04052401 -7.1660516e-37
000310 fa 16 c0 3d 2a c2 67 83 4d a9 49 3e e4 f2 fd 3c
       0.093793824 -6.810769e-37 0.1969349 0.030999608
000320 05 56 0a 3d 81 39 b9 83 c1 49 a6 bc dc ee 01 be
       0.03377344 -1.0886525e-36 -0.02029884 -0.12688774
000330 31 98 8c 3e f3 8e 96 bd ce f1 48 3c d5 84 92 3e
       0.27459863 -0.07351484 0.012264682 0.28616968
000340 d2 d0 80 bd c0 62 63 3e 0f b9 78 03 af 97 68 bf
       -0.06289829 0.22205639 7.3093087e-37 -0.9085645
000350 57 cc 12 3e 1e 68 29 bd a0 bd 93 be 5b 22 35 3e
       0.14335762 -0.04135906 -0.2885561 0.17688887
000360 ba e6 7f 3e b8 cf 7b 3e 0b 56 1c be fe 81 04 bf
       0.24990359 0.24590957 -0.15267198 -0.5176085
000370 51 48 c1 3d e3 4d 87 be 90 46 85 be f6 2e 34 bf
       0.094376214 -0.2642661 -0.26030397 -0.70384157
000380 fb fe 93 3e 3a f3 3b 3e 86 1b ee bb 84 73 25 3d
       0.28905472 0.18354502 -0.0072664646 0.040393367
000390 77 21 5d be b5 1e fa 3c 96 55 e6 02 94 27 c0 b9
       -0.21594797 0.03053222 3.3844587e-37 -0.00036650582
0003a0 dc 6d 9f bc 44 db 8c 03 81 e0 0c bf ee af 98 bd
       -0.019461565 8.278801e-37 -0.55030066 -0.07455431
0003b0 e5 3f 0b be c5 e6 dc 3d 34 37 7b 83 71 64 17 bc
       -0.13598593 0.10786203 -7.382564e-37 -0.009240256
0003c0 4f f7 82 3c 77 3b d5 3d ac a5 db bd a9 d3 89 be
       0.015987067 0.10411733 -0.10724959 -0.26919296
0003d0 f4 ad 73 3e 40 7c 66 3e de 70 66 3e d6 93 24 bc
       0.23796827 0.22508335 0.22503993 -0.010045012
0003e0 c3 79 09 bf cc 45 58 be e7 f5 47 bb 1e c0 1d bf
       -0.5370142 -0.21120375 -0.003051156 -0.6162127
0003f0 e2 f3 c1 3d d4 0f b0 30 46 b4 9e 3d 46 85 8d 02
       0.09470345 1.2810184e-09 0.07749228 2.0794583e-37

net.1.bias f4 [128]
000000 a1 a1 2d 3c 1c f4 fe bd 81 01 9d 3d d2 01 2d 3d
       0.010597617 -0.12448904 0.076663025 0.042238064
000010 42 f8 87 3c 9a 01 b3 bb ec ff 16 be 07 31 7e 83
       0.01659787 -0.0054628374 -0.14746064 -7.470017e-37
000020 c3 04 77 83 8d d6 90 bd 73 31 48 3c bb b4 ce bc
       -7.2592242e-37 -0.07072172 0.012218821 -0.025232663
000030 85 3f b3 3c ff 99 86 be 81 6c 77 3d 28 88 66 83
       0.021880874 -0.26289365 0.06040621 -6.7747225e-37
000040 4c 81 d3 3d 6c f8 97 bc dc ab 6f 83 fc 74 6a 83
       0.10327396 -0.018551074 -7.0433072e-37 -6.890071e-37
000050 46 b3 3f bd 27 15 66 be 27 01 06 3d 2e 63 33 3c
       -0.046801828 -0.22469006 0.032715943 0.010948939
000060 3d e8 5f 3e 5e 8e f5 3d 07 2d 71 3c 97 82 71 83
       0.21865936 0.11990045 0.014720208 -7.0973444e-37
000070 88 3c b7 bb 4b b3 b3 3d 99 53 2a 3d 42 bf bf 82
       -0.0055919327 0.08774432 0.04158363 -2.8174704e-37
000080 14 bf 78 83 bb 30 76 83 f6 79 7a bd e7 8d 90 be
       -7.3099997e-37 -7.2348842e-37 -0.061151467 -0.28233263
000090 c5 da 08 3d 41 90 40 bc ac 59 15 bb 21 ce fb 3d
       0.03341176 -0.011753143 -0.0022789044 0.12295175
0000a0 84 5e 23 be 1d 27 f9 bc 5e bb 8a 3e d3 c7 eb bc
       -0.15954024 -0.030414158 0.27096075 -0.028781807
0000b0 3e 4d d4 bd dc 68 4a 83 12 5e 25 3d 81 ca 1a bd
       -0.10366295 -5.9482837e-37 0.040372916 -0.03779078
0000c0 28 da 13 3e 0b f3 6c 83 a7 e9 85 3e 51 35 19 3e
       0.14438689 -6.9633166e-37 0.26154825 0.14961745
0000d0 be e7 e0 3d 21 25 36 3d 10 93 66 3d dd 46 af 3d
       0.10981701 0.044469003 0.056292593 0.08558438
0000e0 ea c4 68 83 33 23 6c 3b f7 41 6a 83 c5 b1 01 be
       -6.840472e-37 0.0036031723 -6.8842143e-37 -0.1266547
0000f0 ed 47 49 3d c6 ff 72 83 d6 46 5c 83 a3 91 eb 3d
       0.04914086 -7.141102e-37 -6.4733505e-37 0.115023874
000100 f7 25 21 a5 02 f8 56 b4 91 ec 0a 3d 77 d3 70 83
       -1.3977387e-16 -2.0020528e-07 0.033917014 -7.077241e-37
000110 58 49 64 bd 43 c5 a1 3d 26 7b 69 83 38 62 e6 3d
       -0.05573401 0.07898953 -6.8613913e-37 0.112492025
000120 7e 2f 25 bd f9 eb 66 3d 3d da f1 bc e6 4f 4f 3e
       -0.040328495 0.056377385 -0.02952301 0.20245323
000130 fb f6 c0 3c 54 00 6f bc 8f 9b 26 3e 3e d5 53 3d
       0.02355527 -0.014587481 0.16270278 0.051717035
000140 93 7a 36 be 62 50 39 3d 12 eb 11 3d 91 0c 83 3e
       -0.17820196 0.045242675 0.03562457 0.25595525
000150 2f aa 8b 3c fe 7c 9e 3d 8d 94 33 89 2f 12 37 3d
       0.017048923 0.07738684 -2.161619e-33 0.044695076
000160 57 c4 0b bd 04 8c ac 3d 2c f4 21 3e f4 50 99 3d
       -0.03412279 0.08425143 0.158158 0.07486144
000170 f2 2e 57 3c 10 ca 09 3e b2 82 9c bd 75 3a ba 3d
       0.013133751 0.13455987 -0.07642116 0.09093181
000180 68 1d 61 3d 7b d6 0b bd 70 1d 8f 3e ed b3 02 a3
       0.054959685 -0.03414009 0.27952147 -7.085415e-18
000190 08 e2 55 bc dc f9 be a3 f7 f3 66 bd d8 21 c4 bd
       -0.013054378 -2.0705661e-17 -0.056385007 -0.09576768
0001a0 2a e1 00 a2 c5 b9 21 3e 99 3d 9e bd 26 88 2b a6
       -1.7466436e-18 0.15793522 -0.077265926 -5.951206e-16
0001b0 de e3 d1 3d 59 2a 8f 3b 20 e5 46 3d 3a 9e bd 3c
       0.1024854 0.004369062 0.048558354 0.023146737
0001c0 f0 ad 7b 83 56 77 96 3d f7 bd b7 3d 59 47 5a bd
       -7.396194e-37 0.0734698 0.0897178 -0.0532907
0001d0 9a 5b ba 3a 98 a7 f0 3d 12 01 06 3e c2 46 1a bc
       0.0014217973 0.11750716 0.13086346 -0.009416284
0001e0 ff 83 9d bb 18 e2 08 3e 36 1e ad be e3 45 08 bd
       -0.004806995 0.13367498 -0.33812112 -0.033269774
0001f0 77 3d 85 bc 28 a3 68 83 9e a9 99 81 29 65 ee 3d
       -0.01626466 -6.8365967e-37 -5.644671e-38 0.116403885

net.3.weight f4 [2, 128]
000000 95 1c 15 3e 8b e1 38 3e 40 b9 61 3d 7e 66 58 bd
       0.14561684 0.18054788 0.05510831 -0.05283212
000010 d0 b3 83 be 79 fd 1e 3f 48 3f a5 bd 3e 65 70 83
       -0.25723124 0.6210552 -0.080687106 -7.064588e-37
000020 b3 da 67 83 cf d1 4c bf 83 76 0e 3d cd 49 1d 3d
       -6.8135853e-37 -0.8000764 0.03478099 0.03840046
000030 f5 ea 11 3d 73 91 c6 3e 4a e0 c2 bd df 9f 71 83
       0.035624463 0.38782844 -0.09515436 -7.1007058e-37
000040 40 ea 0c 3f b8 3e e3 be 9f 3f cb 07 d8 ba 59 1c
       0.5504494 -0.44383788 3.0581438e-34 7.2040767e-22
000050 bd d5 c3 3d 2a 44 05 bf a7 1d b3 3d 7f e6 bb be
       0.09562252 -0.52057135 0.0874589 -0.36699292
000060 69 dc ab 3f ff 12 b8 be a7 56 d8 be 4a 3a 6c 83
       1.3426639 -0.35951993 -0.4225361 -6.942108e-37
000070 89 c1 21 bc f8 62 91 3d ee e4 d4 bd 9a d6 74 03
       -0.0098728025 0.07098955 -0.103952274 7.1951506e-37
000080 af 46 7e 03 d0 30 7c 03 27 0d 3d be e9 a7 c2 3d
       7.472503e-37 7.411218e-37 -0.18462048 0.095046826
000090 bf bc f7 bd 2f b4 ca 3d 99 18 a9 bc 92 52 9b bd
       -0.12096547 0.098976485 -0.020641612 -0.075841084
0000a0 2b 40 0a bf 8e 11 c9 bc 08 1e 5c 3f 16 03 02 3c
       -0.5400416 -0.024544504 0.85983324 0.007935306
0000b0 13 66 03 bc ab 03 74 03 f6 09 dd 3d 0d 0a f1 bd
       -0.008019942 7.1709366e-37 0.107929155 -0.11769495
0000c0 6b 46 97 bd ea 52 80 03 bc 08 97 3f 14 08 27 3d
       -0.07386478 7.5422e-37 1.179954 0.04077919
0000d0 96 93 a8 3e b9 4e 58 3e 88 2c e1 bd 32 47 a2 bd
       0.329251 0.2112378 -0.10994822 -0.07923736
0000e0 8b 4e 6f 03 37 7d 6c 3e 09 d7 72 03 63 56 1c 3e
       7.032595e-37 0.2309464 7.1364256e-37 0.15267329
0000f0 fb 49 77 3e d3 ce 69 83 0d a1 25 83 e8 de 56 3e
       0.24149315 -6.870997e-37 -4.867402e-37 0.2098347
000100 3b d1 3c 3b c8 76 d4 a2 38 25 18 bd b8 a9 77 03
       0.0028811235 -5.758848e-18 -0.03714487 7.2781604e-37
000110 eb 5e 22 3e d4 6b c4 3d 2e 6f 72 83 70 26 24 40
       0.15856521 0.09590879 -7.1245036e-37 2.564846
000120 62 a9 12 be 22 24 c0 bf c9 59 18 bb 54 65 db bd
       -0.14322427 -1.5011027 -0.0023246875 -0.10712686
000130 9d 3b 7b 3d 6e ed 5f bf 5d d5 2d be 0e 37 c5 3b
       0.06133615 -0.87471664 -0.16975923 0.006018526
000140 a9 4a 02 3e 46 cf 4b 3e 2b 2c 23 be 15 49 d8 3e
       0.12723793 0.19903287 -0.15934817 0.42243257
000150 96 a9 87 bc 3f 8a 9b bd 81 a1 a7 34 26 85 52 bf
       -0.016560357 -0.07594728 3.1223684e-07 -0.8223442
000160 f7 4a 0e be 70 9e 33 3e 64 f3 c8 3e 67 61 b0 3e
       -0.13895784 0.17540908 0.39248192 0.34449312
000170 61 8a 0b 3f 23 fc b2 3e 1e 93 49 3e fc a8 db 3d
       0.54508024 0.3495799 0.19685027 0.107255906
000180 54 90 79 bd 13 33 20 be e0 2c c7 3f 3f 76 5f ab
       -0.060928658 -0.15644483 1.556057 -7.9389614e-13
000190 61 56 45 bc 38 0d b2 36 05 f1 2d be 0f 89 ac bc
       -0.01204452 5.3063523e-06 -0.16986473 -0.021061448
0001a0 c1 2b 9a 38 37 3d 0a 3f 98 93 6c bb 04 53 e8 b9
       7.351442e-05 0.53999656 -0.0036098715 -0.0004431234
0001b0 ce bb 28 3f 93 6a 75 bd 4f b8 34 3d 8c 4c 1a bb
       0.6591157 -0.05991609 0.044121083 -0.002354416
0001c0 50 11 2f 08 9b 9e 68 bc f5 17 6d 3e 7e c3 29 3e
       5.2682498e-34 -0.014197971 0.2315367 0.1657848
0001d0 08 57 5e be e8 69 0f 3f 37 5c cc 3f 66 50 91 3c
       -0.21712887 0.56020975 1.5965642 0.017738532
0001e0 da e0 93 be b9 a7 79 3e 70 08 f3 3e 6c 72 10 bd
       -0.28882486 0.24380387 0.47467375 -0.03526537
0001f0 4f 49 7b bd 81 dd 6f 83 aa c9 f2 01 02 4e 1c 3e
       -0.06134921 -7.049006e-37 8.9186134e-38 0.15264133
000200 32 04 b1 be 99 bb 43 3f 29 75 30 be 0c 9f 5a bf
       -0.34573513 0.76458126 -0.17232193 -0.85398936
000210 3b 4a b2 be 59 9c 82 3d 2c bc 8e be 5a 01 7f 83
       -0.34822258 0.06377477 -0.2787794 -7.4939316e-37
000220 25 49 68 83 14 26 cf 3e 4e 95 5a 3e 2f ca cf 3d
       -6.826264e-37 0.4045874 0.21346018 0.10145985
000230 23 1a 9e bd 7e 45 97 be 0d ba 00 3f 58 57 77 83
       -0.07719829 -0.29545206 0.5028389 -7.268704e-37
000240 b0 5a ad 3d ac 53 40 3e 25 95 6e 03 91 f1 79 03
       0.08464563 0.18781918 7.0113123e-37 7.345183e-37
000250 0b e9 19 bf f1 ff 00 be 46 1a 36 3e 74 bd ce bc
       -0.6012122 -0.12597634 0.1778346 -0.025236823
000260 eb 73 92 3d 2d fe 0e bf ad 07 ae 3d a6 7e 7c 83
       0.07151016 -0.5585659 0.08497558 -7.420153e-37
000270 89 04 a6 3e 29 2d 0a 3f d4 b9 3d be 86 ef 2f 01
       0.32425335 0.5397516 -0.18527919 3.2314273e-38
000280 2c b9 7b 03 a5 a0 73 03 18 5a 94 bd c2 34 d2 3f
       7.3974837e-37 7.1595693e-37 -0.072437465 1.642235
000290 eb a3 e5 3c 75 37 7e 3e eb f3 93 3d 4c d9 7c 3e
       0.028032264 0.24825843 0.07224258 0.24692267
0002a0 52 e0 82 be 84 80 ad bd 45 4c 55 be 64 91 e9 bc
       -0.25561768 -0.08471778 -0.20829876 -0.02851171
0002b0 93 40 3e 3e 1a 37 7b 83 99 63 5f be a0 96 8e 3f
       0.1857932 -7.3825524e-37 -0.21815337 1.1139717
0002c0 65 75 6c 3e 80 f4 72 03 7e 73 88 bd 21 cc ea 3e
       0.23091657 7.139808e-37 -0.066626534 0.45858863
0002d0 98 88 25 be af d6 b0 3d 51 c6 de 3d c8 22 59 3e
       -0.16165388 0.08634698 0.108776696 0.21204674
0002e0 9b 7d 74 03 82 c7 e3 3d 8c 67 2c 83 cb e4 9b bd
       7.1849343e-37 0.111220375 -5.0665123e-37 -0.07611998
0002f0 f9 d1 29 3d d3 b4 73 03 29 78 71 03 1b bc d3 3d
       0.04146001 7.161886e-37 7.096147e-37 0.10338613
000300 c9 a6 7f 9f ad 77 3d b4 18 38 c1 3e 0f 46 80 83
       -5.4136312e-20 -1.7645534e-07 0.3773811 -7.5392485e-37
000310 0c d7 b6 3f 7b 18 74 3f a6 ba 7c 83 f7 3e 7e 3d
       1.4284377 0.95349854 -7.4270406e-37 0.062071767
000320 cb 7f 1b bf 22 9b 56 bd c4 bb 11 3c 87 32 be 3e
       -0.6074187 -0.05239404 0.0088948645 0.37147924
000330 98 6d d1 3e 95 7d be be 41 64 46 3e dd d4 76 3d
       0.40903926 -0.37205186 0.19374181 0.060261596
000340 8f d8 a1 3f 8e 8b 04 be f4 6d 18 be 2f df 63 bd
       1.2644213 -0.12943861 -0.14885694 -0.055632766
000350 8a 10 0b be 87 87 73 be 78 4e 59 2e 9a 49 94 3e
       -0.13580528 -0.23782168 4.9409782e-11 0.28962404
000360 3c c9 37 be 61 08 13 3e 3d 68 15 be 90 1b 8b 3d
       -0.17947859 0.14358665 -0.14590545 0.067923665
000370 09 82 19 3f da 98 85 3d bd 6f ee 3f c5 82 95 3f
       0.5996404 0.06523295 1.862785 1.1680533
000380 94 4e 55 be f0 8e 25 be 92 cd 16 3c cd ef a7 ae
       -0.20830756 -0.16167808 0.009204285 -7.636878e-11
000390 77 69 41 3c bd 64 f3 b1 e4 4a f4 bd 7e c7 2a 3e
       0.01180493 -7.0836834e-09 -0.11928347 0.16677663
0003a0 cb 49 b0 38 a6 98 38 3d 90 ba 4d bd 15 90 b6 b6
       8.406079e-05 0.045067452 -0.050226748 -5.440796e-06
0003b0 82 8f 5c 3d 4c a7 d9 3d 44 50 5b 3f ce 4a 42 be
       0.053847797 0.106276125 0.8566935 -0.18973848
0003c0 42 c6 70 03 79 15 4b 3e a1 a7 0a 3e 8d 57 2f 3f
       7.075725e-37 0.1983241 0.13540508 0.68492967
0003d0 f7 9b f9 bd ef 3e e9 bd 2c 38 88 bd c2 e1 44 3a
       -0.12187951 -0.11388957 -0.06651339 0.0007510447
0003e0 76 b6 09 bf b1 33 db 3d 92 ea 09 b0 f9 18 b3 bd
       -0.5379404 0.10703219 -5.0173654e-10 -0.087449975
0003f0 d0 97 b9 be 77 2d 66 02 ab ed 74 83 f9 e0 8f bf
       -0.36248636 1.6910779e-37 -7.1977985e-37 -1.1240531

net.3.bias f4 [2]
000000 70 4f ed 3d fb 27 f1 bd
       0.11587417 -0.11775204
