ultra_critic_target_model.pt (torch, 80048 bytes, 10 tensors)

input.weight f4 [128, 10]
00000000: f0af b0be 3ca9 363e dc30 3bbd b26e f83d
00000010: 2260 0a3f 45ad 36be 59cc eb3d 9fc4 863d
00000020: 953f 99bc f842 153e 06d4 783e e25e 53bc
00000030: c80b c23d 2043 223e e98c e8be dda6 b63e
00000040: c18a dabe e34b cb3d 5e0c 6c3d aee3 4dbe
00000050: 9860 673e 03da 98be 72f7 e5be 8a56 b13e
00000060: 7e3e a73d c2ef 63bd b429 d9bd 19a1 fe3d
00000070: 52c9 823d c824 f73d 4be6 053f 1f4f 6dbd
00000080: 9860 b3be f83f dcbe 05e4 4c3e f3ea e7bd
00000090: cbc3 af3d 1814 9ebe 9154 853e b57f 92bd
000000a0: 5789 d33e afbf b3bc 8bae 063e 95d6 383e
000000b0: 0a79 7b3d 8a9c b43d 03d3 c3be 46f8 26be
000000c0: ff03 173e 0376 a03e b790 573f 76ea aebe
000000d0: 430c 26bd c7dd 3fbe d081 023e 29d3 21bc
000000e0: 8747 5b3d 0132 17be cf39 cf3e 8138 32be
000000f0: 75dc 973d 1e6d d03e f1b9 85bd b550 6c3f
00000100: eace dd3e 7814 46be 65e5 233e cbdd babe
00000110: ec92 f13e d523 b63e 7d15 9d3d cb3d 023e
00000120: 8a84 e1be 4fe2 ce3e 5a76 77be 88a4 063c
00000130: 5f2b 323e d8a3 6ebe 4cc1 f53e 4947 a2be
00000140: 1477 363e 05c5 debd f7f9 1abf 2c08 b8be
00000150: 0b0e a13e 9e36 bfbd 3a6b a33e 6711 8d3c
00000160: ce4a d8be 9890 8c3d 57f3 9bbe 641e 52be
00000170: 2fc4 213d f4c6 143f aa1b 91be ba4c 22be
00000180: 1f1a c7bd 1ae7 45bd 7c5e a8be d3a7 03be
00000190: 1834 9fbd ee93 01bd 2278 a2bd 5ad8 0a3f
000001a0: 244e 06be 0f19 2d3e f1c3 10be c60a e63d
000001b0: dc95 a3bd 0a4d 90be 6f61 0f3f 63dc 86be
000001c0: 18c3 423e 394c f0bd 6bd4 1d3e 2792 4fbc
000001d0: a4f5 533e 67c0 37be aba6 cd3e 72c5 123e
000001e0: b948 5b3e 456b e2be 28c3 8f3d b12d 3e3e
000001f0: 6955 993e 7409 70be a6e8 dd3d 2386 62bc
00000200: 847e fe3d 5845 aebe 0a23 f6bd e2e0 563b
00000210: acb1 3e3d caa1 243d 3289 0d3f 0fc3 223e
00000220: e108 a53e 1450 ecbd 8024 f93c 24f1 8b3b
00000230: 1e83 abbc 4eb8 083e 8fbe 673e 6add 1e3e
00000240: dddc a4be 344e 3a3d 72ec 85be 845d 0dbe
00000250: de19 a4be 023a cb3d 5e94 d03e d90b 9c3e
00000260: 2919 f5bc 4ac4 90bd 124d a23e 1aea 893e
00000270: 4c1e adbe 5f17 dfbd 02e8 4a3e 5aba f83d
00000280: be12 f13e 4e71 d0bd b324 e0bd 4b85 673e
00000290: de7a 1b3e a440 3a3d 11ef 9cbe 88e0 28be
000002a0: 2787 b03c 2204 a13d 7d6c 623e d6ed 51be
000002b0: 9dad 013e 7ec1 853e 055e 8ebe 814b 58bb
000002c0: 3d35 8d3d 0782 8fbe 8734 9b3e f2d8 39be
000002d0: 4bf2 233d dd70 a7bd 8803 04be e57b 0c3e
000002e0: 5a75 eb3e 2d8d 203e 0d44 a63e b558 69be
000002f0: 53e9 873d 68d2 23bc d630 bf3e 4562 adbe
00000300: 9425 32be 0462 02be 73f8 0ebd 191c cb3d
00000310: 26b1 55be 9db2 db3c ef97 0b3f a7b2 433e
00000320: 062a 54bf d17b 37bd 6099 83be c8cb 34be
00000330: 85bd 1ebe ac83 28bc ac2b edbd e18e 4a3e
00000340: 00b9 08be 344a bc3d 4aa9 7a3d 27bd cbbe
00000350: 635a 7cbe 2d3d 90bd 2f77 42be a016 3c3e
00000360: d93a 94bc 3795 ae3e 1c8c 493d 8159 093e
00000370: fecb 393e bfb4 953d 3ffa 2e3f d9a5 31be
00000380: 8395 82be 4900 933e a800 1e3b 08c8 31bd
00000390: f97a 87be 0788 31be b95b 7a3e 6e46 783e
000003a0: ef62 403e 1cbf 073d a4e4 343d 146d 383e
000003b0: 4746 9cbe 8c78 9bbe c0b4 64be 7f22 8d3d
000003c0: c773 8abe 2f2d 6bbe 004c debe 56a6 1abf
000003d0: 757a 473e 22a5 333c 92b9 81bd 79e4 75be
000003e0: e2fd 213f 6a33 2e3e 77ca 54bf aa34 8dbe
000003f0: f165 e6bd 8833 a8be df55 69be d5d4 adbe
-0.3450923 0.17837995 -0.045700893 0.121304885 0.5405294 -0.17839535 0.115135856 0.06580471
-0.018707076 0.14576328 0.2429963 -0.01290104 0.09474903 0.15845919 -0.45420006 0.35674182
-0.42683986 0.099265836 0.05762898 -0.20106384 0.22595441 -0.2985383 -0.44915348 0.34636337
0.08166216 -0.055648573 -0.10603657 0.12433071 0.06386055 0.12067562 0.52304524 -0.057936784
-0.35034633 -0.43017554 0.20008858 -0.1132411 0.085822664 -0.30874705 0.26041082 -0.071532644
0.4131572 -0.021941988 0.1315252 0.18050607 0.06139473 0.0881892 -0.38246927 -0.16305646
0.14747618 0.31340036 0.8420519 -0.34163254 -0.040539037 -0.18736945 0.12744832 -0.009877005
0.05353501 -0.14765169 0.40473792 -0.17404367 0.07415096 0.4070825 -0.06529606 0.9231065
0.43321925 -0.19343746 0.16005476 -0.3649734 0.47182405 0.35574213 0.07670114 0.12718885
-0.44046432 0.40407035 -0.24166241 0.008217938 0.17399357 -0.23304689 0.47999036 -0.3169501
0.17818862 -0.10877422 -0.60537666 -0.35943735 0.31456026 -0.09336589 0.31917745 0.017220212
-0.4224457 0.068635166 -0.3045909 -0.20519406 0.039493736 0.5811608 -0.28341419 -0.15849581
-0.09721779 -0.0483161 -0.32884586 -0.12856989 -0.07773608 -0.031635217 -0.0793307 0.54236376
-0.13115746 0.1690409 -0.14137246 0.112325236 -0.07987568 -0.28183776 0.56008047 -0.26340017
0.19019735 -0.11733288 0.15413062 -0.012669123 0.20699173 -0.1794449 0.4016622 0.14333132
0.2141446 -0.44222465 0.07019645 0.18572117 0.29947975 -0.23441106 0.1083539 -0.013825926
0.12426475 -0.3403728 -0.12018402 0.003278785 0.04655616 0.040193357 0.5528747 0.15894721
0.32233337 -0.11538711 0.030412912 0.0042706896 -0.020936545 0.13351557 0.22631286 0.1551415
-0.32199755 0.045484737 -0.26156956 -0.13805205 -0.32050985 0.099231735 0.40738195 0.3047779
-0.029919224 -0.07068689 0.31699425 0.26936418 -0.33812177 -0.108931296 0.19815066 0.12144919
0.47084612 -0.10177861 -0.109445 0.22609441 0.15183589 0.045471802 -0.30651143 -0.16491902
0.02154882 0.078621164 0.22111697 -0.20500883 0.12663884 0.26124185 -0.27806106 -0.0033003988
0.0689492 -0.2802889 0.30313513 -0.18149164 0.04002599 -0.08175824 -0.12891972 0.13719137
0.4598797 0.15678854 0.32473794 -0.22787745 0.066363 -0.009998895 0.37341946 -0.33864036
-0.17397147 -0.12732702 -0.03490491 0.099174686 -0.20868358 0.026818568 0.5452871 0.19111119
-0.8287662 -0.044795815 -0.25702953 -0.17655861 -0.15501983 -0.010285299 -0.115805954 0.19781066
-0.13351822 0.091938406 0.061196603 -0.3979275 -0.24643855 -0.07042918 -0.18990777 0.18368006
-0.018094467 0.34098217 0.049205884 0.1341305 0.18144223 0.07309865 0.68350595 -0.17348422
-0.25504693 0.28711155 0.0024109278 -0.043403655 -0.26461008 -0.17337047 0.24449052 0.24245617
0.1878774 0.03314124 0.04416336 0.1801036 -0.30522367 -0.30365407 -0.22334576 0.06891345
-0.27041456 -0.22966455 -0.43417358 -0.6041006 0.19480307 0.010964664 -0.06334223 -0.24012937
0.6327802 0.170118 -0.83121437 -0.27579242 -0.112499125 -0.32851815 -0.22786663 -0.3395144

input.bias f4 [128]
00000000: 89b9 153e f582 d3bc 3380 aa3d b65e d83d
00000010: 4277 4bbe 0476 7e3e 12b8 893e d806 3e3e
00000020: 41b6 c83d a126 4bbe a6b4 d23e 13e6 153e
00000030: 62c5 af3d 0169 b8bb 7c07 643d b7cf cc3b
00000040: 194d 8cbe dc14 9a3d 0042 8bbe 9152 d63d
00000050: d282 69be e9c6 e53d dc32 813d 2cec b13d
00000060: 9d69 59be dc80 2b3c d4a6 0abe 33df 9f3e
00000070: 26e5 19be ffb5 193e 8e5f d03e ef1f c53d
00000080: b741 8f3d 5ce6 47be 4dc7 93be d93a 963e
00000090: a825 483e 14b3 3e3d a629 40bc d1dc db3d
000000a0: f2ab c3bd ebe2 75bd 143d 0b3e 7769 293d
000000b0: 804a 603e af45 6c3e 5996 a03d 9b68 00be
000000c0: be07 b7be 78ca c7bd 9ae4 4e3d 2f01 94be
000000d0: 0a34 9c3e 10e8 273e e820 453e 3c41 36be
000000e0: e984 99be a307 26bd cc87 6f3e 62f9 643c
000000f0: 34e6 d13c 2312 a23e f2d7 1dbe fb54 953b
00000100: 2947 91bc ee56 8a3d 4aaa ca3e a6d2 c13d
00000110: c607 e53d bc07 173d 75d2 f63d 9dab b13d
00000120: 8315 7fbe d216 833e e007 87be 06a7 4cbc
00000130: 0bd3 663e f351 783e 337a fbbb 01f4 b5bd
00000140: eff0 a13e 8254 373e 8308 cebc 92e6 b53e
00000150: eea6 d6bd f8a8 203e 098d b23e 220a ad3b
00000160: f7f0 bb3c f695 053e 1edb 31be 4c85 80bd
00000170: 757c 783d c10f 88bc 3b05 7dbc a1be db3d
00000180: 4c67 433e 463e 14be 8a68 3dbe fe3b 623e
00000190: 723a cabd d1c5 b93d 87e7 a8bc 914b ae3e
000001a0: 6e50 00be 7ec1 65bb c0d4 c1bd 9074 8e3e
000001b0: 16e0 943e 6a51 1e3d 763e 4bbc 86be acbd
000001c0: e17a 16be dd8e c5be 8a03 9cbd 2ccc 033e
000001d0: af91 8c3e b1f9 6cbe f138 7c3e 3ad4 803e
000001e0: c79c f43c a08d b83e fd09 7abe 3b72 6c3e
000001f0: fe30 a53e 0658 dcbd b9fc 02be cd0d ed3d
0.14621557 -0.025819281 0.08325233 0.1056494 -0.19869712 0.24849707 0.26898247 0.18557298
0.09800387 -0.19838955 0.4115345 0.14638548 0.0858257 -0.005627752 0.0556712 0.0062503475
-0.2740257 0.0752351 -0.27198792 0.10464967 -0.2280381 0.1121958 0.06308529 0.08687624
-0.21231695 0.010467734 -0.13540202 0.31224975 -0.1502882 0.15010832 0.40697902 0.096252315
0.06994956 -0.19521469 -0.28862992 0.29341772 0.19545615 0.0465575 -0.01172868 0.10735477
-0.0955428 -0.06003086 0.13597518 0.041360345 0.2190342 0.23073457 0.078411765 -0.12539904
-0.35748094 -0.09755415 0.05051098 -0.28907153 0.30508453 0.16397119 0.19250834 -0.17798322
-0.29984215 -0.040534627 0.23391646 0.013975473 0.025622465 0.31654462 -0.15414408 0.0045572496
-0.017734127 0.06754862 0.39583045 0.09464006 0.11183123 0.03687261 0.1205186 0.08675311
-0.2491055 0.25603348 -0.26373196 -0.012490993 0.22541444 0.24250011 -0.0076744794 -0.08884431
0.3162913 0.17903331 -0.025150543 0.35527474 -0.10481058 0.15689456 0.34873226 0.005280749
0.02294205 0.13045487 -0.17368743 -0.06275424 0.060665566 -0.016609075 -0.015443142 0.10729719
0.19082373 -0.1447688 -0.1849691 0.22093198 -0.09874429 0.090709336 -0.020618213 0.34042028
-0.12530681 -0.0035057957 -0.09464407 0.27823305 0.29077214 0.03865186 -0.012405029 -0.08434777
-0.14695312 -0.3858556 -0.076178625 0.12870854 0.27454898 -0.23142125 0.24631096 0.25161916
0.029859914 0.3604555 -0.24417873 0.2309045 0.3226394 -0.10758977 -0.12791719 0.11574898

layer_norm.weight f4 [128]
00000000: 7fb0 9c3f 6342 903f f515 533f 1d8c 873f
00000010: c510 643f dafd 8f3f 9076 a93f cabd 903f
00000020: 44d3 c03f 1e73 833f d0a5 843f e795 a33f
00000030: 25e6 a83f 3fe3 b53f b542 7a3f a9ea 773f
00000040: a7e6 643f 1d83 993f 2e01 c53f dc49 2f3f
00000050: f5df af3f 7699 983f 391d b73f 8bcb 593f
00000060: 3231 9d3f 20a5 b93f a20d 0d40 ee5f 663f
00000070: 2666 773f 9106 853f f366 653f acfe a53f
00000080: 5873 603f 083c 6b3f 5e46 b13f fdd0 713f
00000090: 1f2c be3f dc01 a33f f50a b73f e614 b03f
000000a0: 29a0 0a40 74c4 c53f 6283 903f 3611 b03f
000000b0: 0c1a c63f 9b3c 4e3f 88d3 c53f 13e6 af3f
000000c0: fc08 a43f d8bd 613f e45e a53f bfdb d03f
000000d0: 9eee a53f dbc5 d83f 5869 cc3f 6555 763f
000000e0: b19d a13f 6553 993f 9965 523f 0d75 f63f
000000f0: 3a0b b63f 2a3a a03f e8b8 5c3f c127 a13f
00000100: 6aac 523f 1b65 873f f236 523f ddcb 9f3f
00000110: 04ef 7a3f bc93 b63f f715 9b3f 9052 893f
00000120: 302c e33f 2e10 c63f 5e79 e83f 7d7d b13f
00000130: f147 c13f a8d3 923f b759 933f 1981 a83f
00000140: 5a15 933f e7f0 b83f cfbf b13f efa5 8c3f
00000150: 4fef ae3f bc62 c83f 2765 af3f e039 a33f
00000160: 3312 553f 1108 893f 3b4a a33f 9016 513f
00000170: 1a92 783f f785 d83f 99f1 e83f da7c 7f3f
00000180: 3a99 b23f b8bc b93f 7d2d a53f 1d77 5b3f
00000190: de3c 7e3f b768 b93f 540f bd3f 0b4f 4c3f
000001a0: 8c95 623f b98f 6e3f 6a88 8b3f 76cb 743f
000001b0: 3788 8e3f 8261 a23f 5096 6f3f b1fa a13f
000001c0: b94b 713f 783b c03f b772 cf3f 575b ad3f
000001d0: eee2 ae3f 7c41 f83f 7cc9 d93f 55f3 ac3f
000001e0: c2e8 953f 6f2e a43f 894a a63f a8f4 723f
000001f0: af77 b13f f616 8f3f 0e1d 633f 06fd ab3f
1.2241362 1.127026 0.8245538 1.0589634 0.8908809 1.1249344 1.3239307 1.1307919
1.5064473 1.0269506 1.0363102 1.2780122 1.3195235 1.4209975 0.97758037 0.9684244
0.8941445 1.1993138 1.5390985 0.68472075 1.3740221 1.1921833 1.4305793 0.85076207
1.2280638 1.4503517 2.203957 0.8999013 0.9664024 1.0392629 0.89610213 1.2968345
0.87676 0.91888475 1.3849599 0.94459516 1.4857215 1.2734942 1.4300219 1.3756378
2.1660254 1.5450578 1.1290095 1.3755252 1.5476699 0.80561227 1.5455179 1.3742088
1.2815242 0.88180304 1.2919583 1.6317061 1.2963445 1.6935381 1.5969648 0.9622405
1.2626249 1.1978575 0.82186276 1.9254471 1.4222176 1.251775 0.86219645 1.2590257
0.82294333 1.057773 0.8211509 1.2484089 0.9802096 1.4263835 1.2116078 1.0728321
1.774786 1.5473688 1.8162038 1.3866421 1.510008 1.1470842 1.1511754 1.3164397
1.1490891 1.4448518 1.388666 1.0988139 1.3666781 1.5655131 1.3702744 1.2752037
0.83230895 1.0705587 1.2757028 0.8167505 0.97097933 1.6915883 1.819873 0.99799883
1.3953011 1.4510717 1.2904507 0.8572863 0.99311626 1.4485081 1.4770303 0.7980811
0.8850944 0.93188053 1.0901005 0.95622957 1.113532 1.2686007 0.93588734 1.265463
0.9425617 1.5018148 1.6206883 1.35435 1.3663003 1.9394984 1.7014613 1.3511759
1.1711657 1.282667 1.2991496 0.94904566 1.386465 1.1178882 0.8871621 1.3436592

layer_norm.bias f4 [128]
00000000: 187e 83bc de39 83be efda 6dbe 543b 29be
00000010: f141 efbd 1d31 98be ddb7 b0bc deb0 85bd
00000020: 4b5e ca3d 7d0f 47be fea5 c6bd 7842 68be
00000030: e34b 6dbd 5f89 813d 5673 9ebd 85a2 38be
00000040: 3214 01be 8771 37bd d1fd c6bc 9ef8 76be
00000050: dfe6 31be 888c 84be fbe2 7ebd 88cd 5bbe
00000060: 514e 6fbd ccea ddbd 019f b8bd ba92 f9bd
00000070: e8fb 0abe 14d7 39be 5aef 1abe 5239 f53c
00000080: 9b2a a1be 74ef 2ebe c065 8fbd 0d44 1bbe
00000090: 1200 ab3c 1f86 b03c 28bc d3bd 6b09 b1bd
000000a0: 3078 b9bd 68b7 1fbf 32e5 00be 7cf5 d4bd
000000b0: d0b2 183d b145 04bf 2e6b 473d bb29 4fbc
000000c0: e4e4 94be 7bd9 bfbd a621 24bd af52 a7bd
000000d0: fd19 0ebe 4263 9a3b 1e37 b1bd 031c 8fbe
000000e0: 9a32 3dbe 02c9 47bd 1f99 9abe 11ae 23bd
000000f0: 7250 d9bd 58f1 b7bd e89e 48be 2b5a 15be
00000100: c624 1abe a74d c2bd 54dd 4abe 4e2d 06be
00000110: 75b2 4dbd 3bc2 333d ea79 28be 932d 75bd
00000120: 886e 96bd ab96 d5be 96f9 2cbe 9db2 20be
00000130: 38cc 5abe dfe1 4dbc e187 a2bd 26bc ebbd
00000140: 1f24 9ebd 1449 813d d1c9 f1bd b6d5 c63d
00000150: 531d 8bbd df26 b0bd d923 aabd 4e0b 35be
00000160: ea4b 62be ac75 fbbd 731c 4abe bfd3 90be
00000170: 7343 dcbd 8a30 ecba 8423 bdbd 14f6 2fbd
00000180: 2d7a d1bd 742b eabd 5156 43bd c46e e5bd
00000190: df4f aebe cd8f 5abc 2282 f4bd 735b 2cbe
000001a0: 2c33 5ebe 20b2 87be d659 90bd 6677 f0bd
000001b0: fa5c 4cbe fbed a93b 3241 f9bd ec34 2cbe
000001c0: 85d5 64be 28fe 0fbe b0b8 44be da2b febd
000001d0: f969 fbbd 98f1 713c 0756 cc3c 46c2 26be
000001e0: 5ff2 16be e05a 36be 1d7c 4cbd b4ab e2bd
000001f0: c4dd 8c3c 43c2 2dbe e8b5 35be 1691 fc3c
-0.016051337 -0.25630087 -0.23228048 -0.16526538 -0.11682499 -0.2972497 -0.021572048 -0.06527875
0.09881266 -0.19439502 -0.09699629 -0.22681606 -0.0579337 0.063250296 -0.07736842 -0.18030746
-0.1260536 -0.044786002 -0.024290951 -0.24118277 -0.17373227 -0.25888467 -0.062228184 -0.21465123
-0.058424298 -0.108357996 -0.090147026 -0.12186189 -0.13572657 -0.18148452 -0.15130368 0.029934559
-0.31477818 -0.17083532 -0.07001829 -0.15162678 0.020874057 0.021548329 -0.10338622 -0.086443745
-0.09056127 -0.6238923 -0.12587431 -0.10398385 0.037279904 -0.5166884 0.0486862 -0.012644227
-0.2908088 -0.09367653 -0.040071152 -0.081700675 -0.13877101 0.0047115395 -0.08653091 -0.2795106
-0.18476334 -0.04877568 -0.30194947 -0.039960925 -0.10611047 -0.089815795 -0.19591868 -0.14585178
-0.1505309 -0.09487467 -0.19810992 -0.1310322 -0.050219018 0.043886404 -0.16452757 -0.059857916
-0.07345301 -0.41716513 -0.16892084 -0.15693136 -0.21366966 -0.012566059 -0.07936073 -0.11510496
-0.07721733 0.06312767 -0.118060715 0.09708731 -0.067927025 -0.08601164 -0.08307619 -0.17680094
-0.22099271 -0.122783035 -0.19737415 -0.2828655 -0.107550524 -0.0018019837 -0.0923529 -0.042959288
-0.10228381 -0.11434069 -0.04768974 -0.112027675 -0.34045312 -0.013339949 -0.11938883 -0.1683176
-0.21699208 -0.26503086 -0.07048385 -0.117415234 -0.19957343 0.00518584 -0.12170638 -0.16817063
-0.22347076 -0.14061797 -0.19211078 -0.12410708 -0.12276072 0.014767073 0.024943365 -0.16285047
-0.14740895 -0.17808104 -0.04992305 -0.11067906 0.01719559 -0.16968636 -0.17745173 0.030830901

shared.1.weight f4 [128, 128]
00000000: aa30 6c3e b1be af3d 9dcf 503e a0b7 383e
00000010: dc4c b23d 4c49 2b3e 3e27 193e ed3e 9e3c
00000020: c4ad 903e 30ff f33d 89b7 133e d6c7 453e
00000030: 1e5a 1b3e 461e 19be b758 943d 614a 5b3d
00000040: 3477 153e 1b3f dabd 33bb 54be 4f68 c93d
00000050: 5245 f7be 8ba5 30be d25e 643e eb56 15bd
00000060: 6390 7a3e e867 83bf f30d 8dbe 61cf a03d
00000070: 9fbe af3b 9418 253c 25bf f33d 91c0 28be
00000080: d378 283e 6d08 df3d 0957 2e3e 91f8 d43c
00000090: 45b2 98be bd7a dfbd b746 a9be c744 b3ba
000000a0: c5b4 0bbf fa96 4d3e 15b3 72bd 7a17 1f3e
000000b0: 8be1 003e a277 203e c55e f8be 8594 98be
000000c0: 573c 8d3e 0b26 0c3e c490 693e fed9 f0be
000000d0: 40c7 993e 7ebc 0c3e e457 993e a7e1 3d3d
000000e0: e67f 023e 6a41 f33c 8651 f23d 9389 9e3e
000000f0: 293b 30bd 1ac0 793d 22b2 0d3e 65e7 16bf
00000100: affc 843d dc11 333e c689 6f3d f443 953d
00000110: 39ea 883d 0e1b b9be 4172 3a3e ffc8 0ebe
00000120: 90c9 75be ff9b 7c3e 31e1 27bd 2352 38bb
00000130: 9097 193e 03ab f23d 4b07 03bf f53f 943e
00000140: 7ff8 8a3d 6f07 07bf ad2b a83e 1cee 573d
00000150: b0fc 40bd 4f10 d5bd 09ed 0bbd 6ce5 95be
00000160: 1ddd 5f3d 6a33 723d 7402 f73d 3cc6 053e
00000170: 7a64 d13d b91f eabd 6f78 ac3e bbbd f73d
00000180: 638b 8a3e 5e3f 9b3c 00ad 60bf 0608 133e
00000190: 44ad 6f3d e6a9 bb3e 6e62 063a 86e0 023e
000001a0: 3476 cf3d 618e 943d 72aa 583c 5bd8 9dbd
000001b0: e4a7 88bb 78c6 81bd aaf3 2c3e f0f5 033e
000001c0: aaed 243e ead2 e5bc feae fcbe bb09 f03c
000001d0: 1400 b53d 4d5f 6dbe 3269 c6be 5b1a 5abe
000001e0: bc79 353e 9794 873d db36 073e 4652 3b3d
000001f0: ab6b e93d b4c1 033e 7710 843c b015 543d
00000200: 69a0 423e d755 be3d c562 04bd 1ab1 823d
00000210: 52e8 253d 54f5 953d 4afa 963d fd83 213e
00000220: 4757 393e 51bb d03d d2d8 123d b0c6 743d
00000230: 48ff bcbc a0fd 67be bbba 603d 3b9c 833d
00000240: 7117 2b3e 6d6d acbc 3640 e6bd 8856 ac3d
00000250: 1a2f 84be e684 3abe 5684 733e 5acd 083e
00000260: f464 ce3d 639e c4be 4c2f a4be 60a0 833d
00000270: 2a31 f53d 287c 153d 0b0b f33d d28a 8ebe
00000280: ad82 3b3e c855 ca3c 62ec 073e 7760 083d
00000290: 1b5c 95be ecf8 2cbe 000a e1be ba76 983d
000002a0: 57c8 1fbf fcfe 15bd 1a40 87bd 4e01 9b3c
000002b0: 7260 423e c102 033e df95 f9bd 64c0 acbe
000002c0: 4777 f93d 00d9 413d eac3 083e 1384 1bbf
000002d0: bc5c cb3d 89e0 bdbc 2893 93bd fdf6 a3bc
000002e0: 5da9 f83d 20a2 733d bbad 0a3d 7ab5 053e
000002f0: 2be6 ddbd a9ee df3d daa4 6bbc ad04 fcbe
00000300: 10f9 bd3d 489e d83b dce2 2a3d 8167 2a3e
00000310: f5b3 893d b9e6 8bbe b658 aa3d ae76 3fbe
00000320: 9894 76be 70b9 aa3d 2132 afbd 4149 873d
00000330: ec5a 993d 4641 fb3d 3d89 06be 7e33 583e
00000340: 6aa9 1a3e de8d 0abe 3199 663e fa7c 2b3e
00000350: a712 7abd 9515 8ebe 0491 21be a127 90bd
00000360: 7fc4 9e3d 852c 313e 2f9a df3d 8aec e33d
00000370: 746d 2b3d 9163 89be 5658 ef3d 78b6 183e
00000380: 7fa2 403e cb8e 9abc fa7a 64be 7bf0 053e
00000390: e88b c43c 4a5c bb3e e492 d03c bdfa 0a3c
000003a0: a958 dd3d 798f 253e ade4 e53d fbd7 b73d
000003b0: 1c47 653d 3ac3 a73d aabe 153d 92aa 173c
000003c0: 90eb 183e 8711 a4bd 95c0 25bf fcda f13c
000003d0: 6e09 7c3c d4f8 21bf 0a09 09bf 9120 b1be
000003e0: 7e38 4e3e 3ae1 13bb b01b 2a3e cb7f 1e3d
000003f0: 2294 f93d ddd4 133e afd1 f83d 6e34 7e3d
0.23065439 0.085812934 0.20391698 0.18038797 0.08706066 0.1672718 0.14956376 0.019317115
0.28257573 0.119139075 0.14425482 0.19314513 0.15171096 -0.14952955 0.072434835 0.05353773
0.14596254 -0.10656568 -0.20774536 0.098343484 -0.48295075 -0.1725065 0.22301796 -0.036459845
0.24469142 -1.0266085 -0.27549705 0.078520544 0.0053633 0.010076661 0.11901692 -0.16479708
0.16452341 0.10890279 0.17025389 0.025997432 -0.2982351 -0.10912082 -0.33061764 -0.0013677113
-0.5457271 0.20077124 -0.059252817 0.155363 0.12586038 0.15670636 -0.48509803 -0.2980081
0.27585098 0.13686387 0.2280913 -0.47041315 0.30034828 0.13743779 0.29949868 0.046357777
0.12744102 0.029694278 0.118319556 0.30964336 -0.04302517 0.060974218 0.13837484 -0.5894683
0.06493508 0.17487282 0.058481 0.07288352 0.066852994 -0.36153454 0.18207647 -0.13943861
-0.24002671 0.24668883 -0.040986244 -0.002812513 0.14999223 0.11849024 -0.51183003 0.28955045
0.06785678 -0.5274572 0.32845822 0.052717313 -0.04711598 -0.10403501 -0.0341616 -0.29276597
0.05465423 0.059131064 0.12061015 0.13063902 0.102242425 -0.11431832 0.33685634 0.12096735
0.2705947 0.018951114 -0.8776398 0.1435853 0.05851485 0.3665306 0.00051263615 0.12780961
0.10129967 0.07253719 0.013224231 -0.07707282 -0.0041704047 -0.06336683 0.16889825 0.12886786
0.16106287 -0.028054673 -0.49352258 0.029301515 0.088379055 -0.23180886 -0.38752133 -0.21299116
0.17722219 0.06620138 0.1320452 0.04573276 0.11397489 0.1286686 0.016121132 0.051778495
0.19006504 0.092937164 -0.032320756 0.06381436 0.04050476 0.07322183 0.073719576 0.15773006
0.180997 0.10191978 0.035851307 0.059759796 -0.023070946 -0.22655344 0.05486558 0.06426283
0.16708161 -0.021048272 -0.11242716 0.08414942 -0.25817186 -0.18214759 0.23780951 0.13359585
0.10077849 -0.3840209 -0.32067335 0.064270735 0.11972268 0.036495358 0.11867341 -0.27840286
0.18311568 0.024699107 0.13273767 0.03329512 -0.29171833 -0.16891831 -0.43952942 0.0744452
-0.6241507 -0.036620125 -0.06604023 0.01892152 0.18982103 0.1279402 -0.12186789 -0.33740532
0.121809535 0.047326088 0.13355985 -0.60748404 0.09929797 -0.023178356 -0.07205802 -0.020015234
0.121416785 0.059480786 0.03385709 0.13057509 -0.10834917 0.10934193 -0.014382565 -0.49222317
0.092760205 0.0066106655 0.041720256 0.16641046 0.06723777 -0.27324465 0.083177015 -0.18697616
-0.24080122 0.08336151 -0.08554483 0.06605769 0.07488045 0.12268309 -0.1313829 0.21113393
0.15103689 -0.1353068 0.22519375 0.16746894 -0.061052945 -0.2775084 -0.15777975 -0.070388086
0.077523224 0.17302139 0.1091808 0.111291006 0.04185243 -0.26833776 0.116867706 0.14913356
0.18811987 -0.018866917 -0.22312537 0.13080017 0.023992494 0.36593848 0.025460668 0.008482632
0.10807926 0.16168012 0.11225257 0.08976742 0.05597602 0.081915334 0.036558785 0.009256976
0.1493361 -0.080111556 -0.6474698 0.029523365 0.015383108 -0.63270307 -0.5352942 -0.3459516
0.20138738 -0.0022564665 0.16612124 0.03869609 0.12186457 0.1443667 0.12149369 0.06206172

shared.1.bias f4 [128]
00000000: b666 2d3d ddd4 d33d 483e f93d 126f ce3c
00000010: 731a f33d f086 ce3d 95d4 ec3b 4534 273e
00000020: 6d43 02bd 49e9 a9bd 06ea 4e3d 3bc3 b289
00000030: 6cc3 04bd 10ed dbbb b2c9 c13d 9445 a782
00000040: 6a6b 00ba 3f8c 2e3e 748e 0d3d ed4d e6bd
00000050: c144 e13d 5f3d fdbc 285c 833c 36e2 af82
00000060: 5e9a 1a3e 610b 28bd deca 07be 7259 d13d
00000070: 3db2 983b d96c 90bd f023 978b 47a8 88bb
00000080: c2dd 2ebe 9dbf be82 b316 f2bd fd69 43b9
00000090: 6da1 b43a b562 2b3d 23db e93d fc19 2cbb
000000a0: 3e60 fe3c 151f c1bd f614 fe87 395a 03bb
000000b0: 41d1 f3bc 0709 b1b1 8605 a3bd 786e aa3b
000000c0: 9d1c e5bc cd2c 953c 23fa 133d 5883 b73d
000000d0: 533f 54bd 0c21 193e 4867 78bb 569a 9e3d
000000e0: dbe7 fe3c 8db6 053e 57e7 2d3e f359 433e
000000f0: c6e4 bbbb aeb1 72bc 5e93 633d 3d17 163e
00000100: 25a5 7c8a f9b3 0d3e b1c6 e73d 6985 0b3e
00000110: 1b49 91bd daf1 163a de05 343e 7471 f73c
00000120: e6dc 1e3e 7165 55bd 8113 9c3d 83d2 88bb
00000130: fe06 313e 1821 8b3d ecd5 d63c 308d ee3d
00000140: 2312 9ebd 6e3a eabd 99fa 013e 1ce3 ee3d
00000150: afce 60bd b3e1 6abd 8e72 1c3d 10b6 36be
00000160: 1645 e7bd d6a0 553d d13f da3d ee89 6d3d
00000170: 8e13 acbd 2338 293d 77ad acbd 7907 29bd
00000180: d71a d282 dc29 773e c43b a93d 2fb9 793e
00000190: 5613 103d 030d 3e3d ba77 3fbb c631 863d
000001a0: 848a c1bd e60a aa82 354f 033c 2cb1 3184
000001b0: 9c5f bf3d 4b04 a43c e6fa 8ebd 4356 523d
000001c0: 1c5f 7bbd 4690 3b3d 0250 abbc 1da0 303d
000001d0: cbed 5ebb 4697 15bc 7bc8 ae82 82c3 9dba
000001e0: 7cd4 b13d 4f64 773e 5a9c 9d3d 0172 083e
000001f0: c2af 403d 27b8 c83d 2552 08bc 2855 073e
0.04233428 0.10343335 0.12170082 0.025199447 0.11870279 0.10084331 0.00722749 0.16328533
-0.031802583 -0.08296449 0.05051615 -4.3035535e-33 -0.03241293 -0.0067116097 0.094622985 -2.457838e-37
-0.00048988184 0.17045687 0.034559682 -0.11245332 0.10999442 -0.030913053 0.016035154 -2.5843778e-37
0.15097949 -0.041026477 -0.13260981 0.102221385 0.0046599195 -0.07052011 -5.8217157e-32 -0.004170451
-0.17076781 -2.8027971e-37 -0.11820736 -0.00018636133 0.0013781019 0.04184218 0.1141875 -0.0026260605
0.031051751 -0.094297566 -3.8229992e-34 -0.002004279 -0.029762866 -5.1524043e-09 -0.07960038 0.005201157
-0.027967745 0.01820984 0.03612722 0.08960599 -0.051818203 0.14954013 -0.0037903357 0.07744281
0.031116417 0.13057919 0.1698278 0.19077282 -0.005734059 -0.01481287 0.055560462 0.14657302
-1.2164419e-32 0.13838185 0.11317194 0.1362511 -0.07094022 0.00057580846 0.17580363 0.030205466
0.15513954 -0.052098695 0.076209076 -0.0041754856 0.17287824 0.067934215 0.026225053 0.11648023
-0.07718303 -0.11436926 0.12693252 0.116644114 -0.05488461 -0.05734415 0.038195185 -0.17842889
-0.11292474 0.05215534 0.10656703 0.057992868 -0.08402167 0.0413133 -0.08431523 -0.041266892
-3.0872132e-37 0.24137062 0.082633525 0.24387048 0.03517469 0.046399128 -0.002921565 0.06552462
-0.09450248 -2.498551e-37 0.00801449 -2.0887603e-36 0.09344408 0.020021578 -0.06981449 0.051351797
-0.06137 0.045791887 -0.020912174 0.043121446 -0.0034016247 -0.009130305 -2.5682072e-37 -0.0012036415
0.08683106 0.24159358 0.07695837 0.13324739 0.047042616 0.09800749 -0.008320366 0.13216078

q_heads.0.weight f4 [1, 128]
00000000: c6c9 fd3d fd0d 0c3e 3548 063e 8541 17c0
00000010: ee2c b5bc d9b7 e23d e83b 8fbf 9148 c73c
00000020: abbf a9bc 7f57 90bf b904 d5be 6679 df98
00000030: 286c a0bf e888 12bf 7bfe 8b3d aa52 d48c
00000040: 1f6f 013d e9fb 8e3d c059 1b3d 9d48 56bf
00000050: afc3 be3d ff3d bebe c7ca dd3d 2056 c702
00000060: d9c6 363f fec8 febf 6dea a8bf 0c5f 273d
00000070: d810 5c3f 986f 7fbf 9f30 ca9f c850 ee3e
00000080: e6ca 313f b8e5 1c8d 170c d3bf bf9e 09bc
00000090: 76d5 813f 87d4 703d f74d a43d cd82 9abf
000000a0: 125d 613d df06 1f3f 9f10 111a 795e 0cbc
000000b0: 3c9e b2bf dbe1 41ba 8c10 253f adb4 903d
000000c0: 7e33 8fbf c2d7 9d3d 6a14 97bf f870 65bf
000000d0: 58ba b0bf 35b5 373e 90bd 80bf cc43 903d
000000e0: adaf f4be 4da2 de3d 89d7 463e 38b3 7f3d
000000f0: b37d 8d3f ccb1 3b3d 4434 6c3f 0c65 e2bc
00000100: c6c2 191b 2c45 a53d 3842 863d 627e ae3d
00000110: 4aa4 abbe df2c b5bc cbd6 ca3e e93c 07bf
00000120: ef00 693e d0eb 8cbf aba3 003e b6a9 77b9
00000130: a608 553e ce6c 383d a5ab 17bd 228b 1c3e
00000140: 5bbe 87bf 8945 8a3f 855f 953d 5ad9 853d
00000150: bc98 1bbf d850 9dbf b4f6 e43d e2cf 033f
00000160: 8d22 00c0 3c34 c13c 8288 8a3d 04f3 04bd
00000170: 922c 873f 24db a3bf aa19 4dbf 0354 31bf
00000180: c3b1 7c14 5947 113e a806 5d3e d0f6 083e
00000190: a316 57bf 9a97 4cbd 70f6 58bf 0917 283d
000001a0: 957d 9ebf c666 af02 07d8 07bf e178 770f
000001b0: 54d5 1a3e b927 43bc 325d c8bf 1d13 e33d
000001c0: 82e1 b8bf fe68 d1bc 4fd1 63bf 566b ff3d
000001d0: 00fd 51bf 975b eb3d 0943 a591 772e b7bf
000001e0: bec6 d63d 32de 323e 1a90 0a3e acbd 423e
000001f0: 1897 db3d 3a80 2f3e 07f3 a8bf 2058 943d
0.12392001 0.13677211 0.13113482 -2.363374 -0.02211615 0.110702224 -1.1190157 0.024326595
-0.020721277 -1.1276702 -0.41605166 -5.776673e-24 -1.2533007 -0.5724015 0.06835648 -3.2713523e-31
0.031600114 0.06981642 0.03792739 -0.8370455 0.093146674 -0.37156674 0.10829692 2.9289855e-37
0.7139717 -1.9905088 -1.3196541 0.04086213 0.859632 -0.99779654 -8.5630765e-20 0.46546006
0.69450223 -4.8347725e-31 -1.6488065 -0.008399664 1.0143268 0.058796432 0.08022683 -1.2071167
0.0550204 0.6211986 2.9998724e-23 -0.008567446 -1.3954539 -0.0007396021 0.64478374 0.07065711
-1.1187589 0.07707168 -1.1803105 -0.896255 -1.3806868 0.17940219 -1.005785 0.07044181
-0.4779028 0.108708 0.19418158 0.062426776 1.1053985 0.045823857 0.9226725 -0.027636074
1.2718798e-22 0.08069834 0.06555599 0.08520199 -0.3352378 -0.022116123 0.39617 -0.52827317
0.22754262 -1.1009464 0.12562434 -0.00023618978 0.2080408 0.04502564 -0.037028927 0.1528745
-1.0604967 1.080247 0.072936095 0.06535597 -0.6077993 -1.2290297 0.111798674 0.5148908
-2.0021088 0.023584478 0.06764318 -0.03245832 1.0560477 -1.2801251 -0.80117285 -0.69268817
1.2757806e-26 0.14187373 0.2158457 0.13375401 -0.84018916 -0.049949266 -0.84751034 0.041037593
-1.2382075 2.5772928e-37 -0.53064007 1.2201321e-29 0.1512044 -0.011911326 -1.5653441 0.1108763
-1.444382 -0.02556276 -0.88991255 0.124716446 -0.8202667 0.11492079 -2.6073723e-28 -1.4311055
0.10487126 0.17467573 0.13531533 0.19017667 0.10722178 0.17138758 -1.3199166 0.07243371

q_heads.1.weight f4 [1, 128]
00000000: 1019 3a3e 73cb 3b3d 6598 0f3e efd8 15c0
00000010: 5cbd 3c3d 610a cd3d 0ead 8fbf 3e19 173e
00000020: e68f aabc e25f 8bbf 5897 d0be 7051 da98
00000030: 8387 a0bf 85bb 1bbf bcd1 033e 29d3 d58c
00000040: 616c e63d 8716 313e 09ac 8ebc ca9a 53bf
00000050: ece7 943d 4564 d5be b97b 6d3d 3f35 b402
00000060: 1f82 393f c8a5 00c0 de3b a7bf cbf1 e23d
00000070: d313 633f 219a 67bf 386a c29f d4bd f03e
00000080: 2bb0 313f e262 038d 56ab cfbf 6e9c 03bc
00000090: 5ced 773f 436e db3b d4f2 2b3d 29a3 9ebf
000000a0: 4482 90bc a88f 1d3f 1caf 8c1a ef52 11bc
000000b0: 9d94 b5bf 9c1b eeb9 8f6e 193f b43c 42bc
000000c0: e09d 90bf bb59 f3bb e28b 91bf f48f 5ebf
000000d0: 9a76 abbf 83b5 033e 7458 7ebf 0efd 8c3d
000000e0: fad4 fbbe 9a7a b33d 0404 3f3e f7ab 0a3e
000000f0: 94dc 8e3f 7f28 28bd a936 6e3f a5da f83d
00000100: 1f42 a61b 2f21 b13d 2936 db3d bf59 143e
00000110: 84e6 afbe 2853 16bd ef72 c73e db55 08bf
00000120: 1994 1e3e a937 8dbf 4630 093e 4cb9 843a
00000130: b896 bc3d 3a4b d2bd 5704 3abc 4cec d03d
00000140: 9848 8fbf d809 8f3f 2902 a73d b3a3 4b3d
00000150: 6333 32bf 90ff 9dbf 413a 533d 09a4 193f
00000160: f882 fabf f8c8 723d f2e9 a03d 46ac 8c3d
00000170: 9c72 873f 2cdd 9dbf f3d3 53bf 6ac3 2fbf
00000180: c273 3f93 fe47 333e 3aa1 2a3e b827 383e
00000190: 1798 4cbf df91 253d 299e 5dbf 0119 c93d
000001a0: f3c9 a8bf 27b6 b402 a24b f0be 0789 6d0f
000001b0: 261b c53d d8da 4dbc e8f8 c9bf 3821 afbc
000001c0: 1cf2 bbbf 997d ba3d a7ac 60bf e821 083e
000001d0: 106b 54bf f934 c33d 209a 9e91 93f6 b1bf
000001e0: b120 c53d 1602 a03d 18a7 f73d 5658 153e
000001f0: cc6e cb3d cbf2 3f3e f138 a7bf c762 6e3d
0.18173623 0.04584832 0.14022978 -2.3413656 0.046079025 0.10011745 -1.1224687 0.14755723
-0.02082057 -1.0888636 -0.40740466 -5.643391e-24 -1.2541355 -0.6083301 0.12872976 -3.2944934e-31
0.112511404 0.1729375 -0.017416017 -0.82658064 0.07270798 -0.41678062 0.05797932 2.6479185e-37
0.72464174 -2.0101185 -1.3065145 0.110812746 0.88702124 -0.9046956 -8.233792e-20 0.47019827
0.69409436 -4.0486517e-31 -1.6224163 -0.008032901 0.96846557 0.006696494 0.041979626 -1.2393543
-0.01764024 0.6154733 5.818555e-23 -0.008869871 -1.4185978 -0.00045415468 0.59934324 -0.011855293
-1.129818 -0.007426468 -1.1370814 -0.86938405 -1.3395569 0.1286221 -0.9935372 0.06884204
-0.49185926 0.08763619 0.18653876 0.13542162 1.1161065 -0.041054245 0.93052155 0.12151078
2.7505126e-22 0.086489074 0.107036896 0.1448736 -0.34355557 -0.036700398 0.38954875 -0.53256005
0.15486182 -1.1032611 0.13397321 0.0010126024 0.09208435 -0.102682546 -0.011353574 0.1020132
-1.1194029 1.1174879 0.08154709 0.049716663 -0.6960966 -1.2343616 0.051569227 0.6001592
-1.9571218 0.05927369 0.078571215 0.06868796 1.0581851 -1.2333121 -0.82745284 -0.68657553
-2.4164662e-27 0.17507932 0.16663066 0.17983902 -0.7991957 0.040422317 -0.8656946 0.09819222
-1.318663 2.6553173e-37 -0.46932703 1.1711393e-29 0.09624319 -0.012564383 -1.5779085 -0.021378145
-1.4683261 0.09105987 -0.87763447 0.13294184 -0.82975864 0.09531588 -2.5022991e-28 -1.3903373
0.09625376 0.07812898 0.120924175 0.14584479 0.09933242 0.18744962 -1.3064252 0.05819967

q_heads.2.weight f4 [1, 128]
00000000: 1458 de3d b597 b53d 9198 2f3e 58fb 15c0
00000010: bc4c 8b3c 5bca 183e bec3 94bf 57e2 263e
00000020: 06c1 93bc c226 89bf c8b3 ccbe 0865 df98
00000030: 15af 99bf 7184 04bf 9052 2d3e 6a32 df8c
00000040: 8054 1f3e f214 223e fc71 9ebc f1f4 5abf
00000050: 0f23 283d 2d71 d7be 7d14 293e 188d c502
00000060: b38e 323f 688f 02c0 c92b a6bf 6298 903d
00000070: cd99 5f3f b892 7abf a205 e59f 2172 003f
00000080: 2bd8 2a3f ce94 ff8c 07f5 d0bf a644 01bc
00000090: 1a49 753f 74f3 083e 6734 953d 05a4 92bf
000000a0: 7c6b 11bc 01e4 1b3f 7ad5 021a 0480 14bc
000000b0: 4ff4 b5bf a78e 94ba 03c6 263f cdc9 bf3c
000000c0: 76be 83bf 00e0 8bba b59d 9cbf 14a6 61bf
000000d0: 82e2 abbf f412 713d d068 89bf 0a08 0c3e
000000e0: e139 ffbe 14a6 163e 2ddc 543e 7e63 203e
000000f0: a457 913f a517 57bb 6da8 683f b1e3 a63d
00000100: 1834 171a 965d e23d e55e 103d f9bf 3f3d
00000110: 42e4 b5be 76e7 523d 9d2a b43e 1108 20bf
00000120: 55d7 413e 1993 96bf 2eda ab3d 829b fb38
00000130: 6e6c d13d 1e18 453d b7dd 513d 79fd c73d
00000140: 1189 90bf efac 8e3f 9c77 e83d bce1 f4bc
00000150: 76e7 25bf 3e11 98bf b161 d43c 19e6 ee3e
00000160: 7d4d 01c0 49c6 073e adbf 563d 6e8a 023e
00000170: 4aa8 853f 43a9 9ebf 68f9 37bf 9fad 41bf
00000180: 90db eb12 59a7 183e 3db0 3d3e d9c8 293e
00000190: 45b5 48bf 1942 2cbc 7e18 61bf e1d8 3bbb
000001a0: 331a 9ebf 1ea1 ae02 2453 01bf aa06 700f
000001b0: aa3d 033e 5cab c23c d665 c9bf 5bbe 173e
000001c0: 4966 bebf 0a6b 4c3d 2db2 64bf 4342 f23a
000001d0: 7ca9 4fbf 49d7 223c d750 9b91 0f68 b4bf
000001e0: 212c 0d3e 4f84 f63d 5737 7f3c a3ce 0d3e
000001f0: f29c 733d 784e af3d 4f7c acbf ebd1 e03d
0.10856643 0.088668264 0.17148043 -2.3434658 0.017004363 0.14920942 -1.1622236 0.1629728
-0.018036377 -1.0714953 -0.39980912 -5.7746164e-24 -1.2006556 -0.5176459 0.16926026 -3.4388932e-31
0.15559578 0.15828303 -0.019341461 -0.8553 0.04104906 -0.42078534 0.16511722 2.9027532e-37
0.6974899 -2.0400028 -1.2982112 0.07060315 0.87344056 -0.97880125 -9.699459e-20 0.50174147
0.66736096 -3.937853e-31 -1.6324776 -0.007889902 0.9581467 0.1337412 0.072853856 -1.1456305
-0.008875724 0.6089478 2.7055815e-23 -0.009063724 -1.4215182 -0.0011334018 0.6514589 0.023411656
-1.0292499 -0.0010671616 -1.2235628 -0.8814404 -1.34285 0.058855966 -1.0735111 0.13674942
-0.49848846 0.14711791 0.20787115 0.15662953 1.1354871 -0.003282049 0.90882 0.081488974
3.126815e-23 0.11053006 0.03524675 0.04681394 -0.3552571 0.05149027 0.3518876 -0.6251231
0.18929799 -1.1763641 0.08391224 0.00011997578 0.102257594 0.048118703 0.051236834 0.09765143
-1.1291829 1.1146525 0.11350939 -0.029892795 -0.64806306 -1.1880262 0.02592549 0.46659926
-2.0203545 0.13259234 0.05242889 0.12748119 1.0441983 -1.2395405 -0.7186494 -0.7565555
1.4884711e-27 0.14907588 0.18524261 0.16580524 -0.78401595 -0.010513806 -0.87928 -0.0028663205
-1.2351745 2.5659479e-37 -0.5051749 1.1834197e-29 0.12816492 0.023763351 -1.5734203 0.14818709
-1.4874965 0.049906768 -0.89334375 0.0018482882 -0.8111799 0.009939023 -2.450451e-28 -1.4094256
0.13786365 0.120369546 0.015577159 0.13848357 0.059475847 0.085598886 -1.3475436 0.10977539

q_heads.3.weight f4 [1, 128]
00000000: 044b 4c3a 8a1a a7bc 7fa6 113c 09a9 dc3a
00000010: 867f 0bbc 8eff b73c 5c35 f439 92c2 3abd
00000020: c558 3fbb b7f9 4e3a fcef 0dba 1cd1 0c03
00000030: 0211 193b 6aec 0e3c dd0e 5d3c 6f9e 3682
00000040: be61 95bb d08a 013d 3653 913b 102c 583b
00000050: dba5 1f3c 3304 2abc 4946 383c 900c ba82
00000060: 6ce4 07bb f552 2dbb 7512 ad3b d75d b3bc
00000070: c0a8 593a a819 d2bb ffab b482 34c1 1eba
00000080: af1a 41bb 87af bf02 eb78 88ba ba83 40b6
00000090: 464c b3bb 4c14 aebb fe94 5ebc c53a 603b
000000a0: 7557 ef3b a7be f5bb 1756 b102 732b c1ae
000000b0: bffa f53a 326b 2f25 f038 35bb 0961 473c
000000c0: 678b 2a3b 0c16 d7bc ffce 37bc def2 cd3b
000000d0: 446e bb3b 0714 9f3b 1ed3 113c 7e01 953a
000000e0: 9064 9e3b 0415 cbbb b63f 60bb e02a f13c
000000f0: c609 0bb9 e8b2 11bb 7901 c13b b5c0 46bd
00000100: 1289 9082 9669 b63c b293 d23b b48e 6ebb
00000110: f592 b1ba 3b8a 84b9 e7f0 5ebc 17ad c9bb
00000120: 8da7 f33c 33d2 073c 6a83 5c3c 9976 1e37
00000130: 8b3b 0cbd f2f7 043c ef97 27bc 6c8c adbc
00000140: 512e 783b 466f 3d3c 0f5c 90bc f990 3e3c
00000150: 3ccd 163b aead 22bc 2080 933c fd55 3f3c
00000160: a4c5 e03b 3b2a 853b 8257 533b 30ba 163b
00000170: c293 863a 1a8d e2bb 6dee 193b 79ac 003b
00000180: 10a9 3b82 1de9 c2bb 4909 a9bc 820d aabc
00000190: 467a 883b 77f8 603a b1b2 803b 8303 333c
000001a0: 7179 b7ba 822b d882 ee15 55bb 5766 2783
000001b0: 0348 b1bc 20a7 4d3a 878f 243b 05c5 e4bb
000001c0: bec2 d5bb 5cf5 6abc 5273 d439 488f 00ba
000001d0: 65c8 adbb b061 4b3c 605c c782 8874 8bba
000001e0: 93bb a639 0666 ef3c 7654 0f3d 0eec 20bb
000001f0: bbf7 8c3c e602 063d bd10 093a da43 8fbc
0.00077931606 -0.020398397 0.008889793 0.0016835044 -0.008514291 0.022460725 0.00046579062 -0.045595713
-0.0029197198 0.0007895487 -0.00054144836 4.138235e-37 0.0023356085 0.008723358 0.013492313 -1.3416716e-37
-0.004558771 0.031626523 0.0044349683 0.0032985248 0.009744133 -0.010376978 0.011247226 -2.7337454e-37
-0.0020735515 -0.0026447151 0.0052817413 -0.021895332 0.0008303039 -0.00641175 -2.6547344e-37 -0.0006056011
-0.0029465368 2.8165675e-37 -0.0010412013 -2.8686904e-06 -0.005471739 -0.005312478 -0.013585327 0.0034214717
0.007304127 -0.007499534 2.6057226e-37 -8.784342e-11 0.0018766745 1.521515e-16 -0.0027652346 0.012169131
0.0026023032 -0.02625563 -0.011218785 0.0062850555 0.005719932 0.0048546824 0.008900432 0.0011368243
0.0048337653 -0.0061975736 -0.0034217662 0.02943939 -0.00013259714 -0.002223188 0.005890068 -0.048523623
-2.1237573e-37 0.022267144 0.006426298 -0.0036400976 -0.0013547825 -0.00025279992 -0.01360724 -0.006154667
0.02974298 0.0082898615 0.013459066 9.445147e-06 -0.034236472 0.008115755 -0.010229095 -0.021185122
0.0037869404 0.011562174 -0.017622022 0.011631244 0.0023010513 -0.009929104 0.01800543 0.011678216
0.006859498 0.004063872 0.0032248204 0.002299916 0.0010267424 -0.0069137933 0.002348806 0.0019634052
-1.3787109e-37 -0.0059481994 -0.02063431 -0.020758394 0.0041649668 0.0008581946 0.0039275517 0.01092613
-0.0013997984 -3.176332e-37 -0.0032514292 -4.919437e-37 -0.021640783 0.0007845033 0.0025109963 -0.0069814944
-0.006523459 -0.014340725 0.0004052171 -0.0004904163 -0.00530343 0.012413427 -2.9293443e-37 -0.0010639587
0.0003180174 0.029223453 0.034992658 -0.0024554762 0.01720797 0.032717608 0.00052286295 -0.017488409
